checkpoints/epoch2.pth (torch, 966014 bytes, 6 tensors)

layer_1.weight f4 [128, 3, 9, 9]
0	0x3cc0605f	0.023483453
1	0x3d356c52	0.044292755
2	0x3d81a04e	0.06329404
3	0x3a3902de	0.0007057617
4	0xbd79fa6c	-0.061029837
5	0xbab73dc9	-0.0013980205
6	0x3cd1d8e1	0.025616111
7	0x3d09cd66	0.03364315
8	0xbbe1b5d9	-0.006888133
9	0x3c4c0c6b	0.012454133
10	0x3c67a11c	0.014137533
11	0xbdc3d794	-0.09562603
12	0xbcb57d24	-0.022154398
13	0x3bacc20b	0.005272155
14	0xbd9a0394	-0.07520214
15	0xbda86cc9	-0.08223874
16	0xbc00ada9	-0.007853904
17	0xbc3b796f	-0.011442526
18	0xbd4d577b	-0.050132256
19	0x3c05b5ee	0.008161051
20	0xbd3d9cec	-0.04629223
21	0xbdc332a2	-0.09531142
22	0x3ce52e59	0.027976202
23	0xbb59da85	-0.003324182
24	0xbc5b8d82	-0.013400437
25	0xbc99636a	-0.018724162
26	0xbd15b1c8	-0.0365465
27	0x3be05da1	0.006847099
28	0xbd5157ee	-0.051109247
29	0xbe072ab4	-0.13199884
30	0xbd7cf075	-0.061752755
31	0x3d75a353	0.05997021
32	0x3d0b4502	0.034001358
33	0xbc5bd72f	-0.013418003
34	0xbdaf93ea	-0.08573134
35	0xbd449be0	-0.048000216
36	0x3d98e5ce	0.07465707
37	0xbd8ffe9c	-0.07030985
38	0xbe146d32	-0.1449478
39	0x3d014960	0.031564116
40	0x3db716c9	0.08939893
41	0xbcde3806	-0.027126323
42	0x3d1822a2	0.037142403
43	0xbd8840cc	-0.06652984
44	0xbc97d74a	-0.018535275
45	0x3d240f90	0.040053904
46	0xbcbec9e8	-0.023289636
47	0xbe2d215b	-0.16907255
48	0x3b109b10	0.002206508
49	0x3cb79fb1	0.022415014
50	0xbd3d3f65	-0.046203036
51	0x3cec9ec6	0.028884303
52	0xbd15d187	-0.036576774
53	0xbd5fb28b	-0.05461363
54	0x3cbd58ed	0.023113692
55	0xbc9446d6	-0.018100183
56	0xbe0a97df	-0.13534497
57	0xbd0484e9	-0.032353316
58	0xbce80b01	-0.02832556
59	0xbd7720f2	-0.060334153
60	0xbd67da96	-0.056604944
61	0xbccb6154	-0.024826683
62	0xbce2708e	-0.02764156
63	0xbc9173ba	-0.017755378
64	0x3ce5bd91	0.028044494
65	0x3d1529f6	0.03641697
66	0xbd94d3fe	-0.07266997
67	0x3c238896	0.009981295
68	0xbd65792b	-0.056023758
69	0xbda560a1	-0.08075071
70	0x3d26fe3c	0.0407698
71	0xbc3b01fd	-0.011414048
72	0xbb46021d	-0.0030213662
73	0xbbc3c75f	-0.0059746946
74	0x3d19f150	0.03758365
75	0x3d3a5d6a	0.045499243
76	0x3c2c1608	0.0105032995
77	0xbbd16836	-0.0063905967
78	0x3d7a96ce	0.061178975
79	0xbd285c21	-0.041103486
80	0xbcccd407	-0.025003446
81	0xbd35ca2e	-0.044382267
82	0x3cc5ee51	0.02416149
83	0x3d674b97	0.056468572
84	0xbd0d1a0a	-0.03444866
85	0xbd73eee5	-0.059554
86	0xbd9789c1	-0.07399321
87	0xbc7f7955	-0.015592893
88	0x3d8b62a2	0.06805922
89	0x3d24c385	0.040225524
90	0x3c5f4532	0.013627337
91	0x3d675106	0.056473754
92	0xbda92b80	-0.0826025
93	0xbd3fbe04	-0.046812072
94	0xbd287104	-0.041123405
95	0xbd82388b	-0.06358441
96	0xbd8689de	-0.06569265
97	0xbdc83efc	-0.09777638
98	0xbc33ef44	-0.010982338
99	0xbc434b3c	-0.011919793
100	0x3d58723f	0.05284333
101	0xbdfed28c	-0.124425024
102	0xbb4d7221	-0.0031348544
103	0xbd09a0bb	-0.03360055
104	0x3d7ee41a	0.062229253
105	0xbd74173a	-0.059592463
106	0xbc50cc9e	-0.012744097
107	0xbd898e1c	-0.06716558
108	0xbb9f3d76	-0.0048596216
109	0xbaadf899	-0.001327294
110	0xbdcc8017	-0.09985369
111	0xbb819fcb	-0.0039558164
112	0xbd56896a	-0.052377142
113	0xbd4ec021	-0.050476197
114	0x3c05b109	0.008159884
115	0xbc951277	-0.018197281
116	0x3bdcfc07	0.006743911
117	0x3d9aab06	0.075521514
118	0xbcd9566a	-0.026530463
119	0xbddc9b24	-0.10771778
120	0x3d3eccf7	0.04658219
121	0x3bbfecc2	0.005857081
122	0xbd0e4c08	-0.034740478
123	0xbc838fa8	-0.016059712
124	0x3d015564	0.031575575
125	0x3b76999a	0.0037628175
126	0x3c9af5b5	0.01891599
127	0xbdad63a2	-0.08466269
128	0xbdeb46f9	-0.11488146
129	0x3cd90e16	0.026495975
130	0xbd690c41	-0.05689645
131	0x3d8eb975	0.06968967
132	0xbce4a31c	-0.027909808
133	0x3bc9e43b	0.0061612404
134	0xbd64edf0	-0.055890977
135	0x3c1d4b90	0.009600535
136	0x3d10ad2d	0.035321403
137	0xbd69cdd7	-0.05708107
138	0xbe04fc66	-0.12986907
139	0xbdacf1bf	-0.08444547
140	0xbd65ade0	-0.056074023
141	0xbbc95873	-0.006144577
142	0xbd489632	-0.048971362
143	0xbb8dde39	-0.0043294695
144	0x3c09e09a	0.008415366
145	0x3c0e8dcd	0.0087008
146	0x3cd18724	0.025577135
147	0xbc9f54db	-0.019449642
148	0x3d085f13	0.033293795
149	0xbd2c3196	-0.042039476
150	0x3cf7ae67	0.030234529
151	0x3c04f564	0.008115146
152	0x3c6fc3f0	0.0146341175
153	0x3addbc28	0.0016917037
154	0xbd263bd4	-0.0405844
155	0x3d16840b	0.03674702
156	0xbd57d307	-0.052691486
157	0xbda070b1	-0.07833994
158	0x3bc1c229	0.0059130383
159	0xbd1c1c98	-0.038113207
160	0xbd36ba64	-0.04461135
161	0xbbc90842	-0.0061350176
162	0x3b7125f1	0.0036796296
163	0xbc2ae5f5	-0.010430803
164	0x3d6f321d	0.0583974
165	0xbcec33eb	-0.02883335
166	0x3c1a9f26	0.009437358
167	0xbc6a577a	-0.014303083
168	0xbaa25a65	-0.0012386559
169	0x3da092ea	0.07840522
170	0x3cfa44f6	0.030550461
171	0xbd6db2c9	-0.05803183
172	0xbc7ec9aa	-0.01555101
173	0xbd7d614d	-0.06186037
174	0xbd836d4e	-0.064173326
175	0xbd9b1c7d	-0.07573793
176	0xbc311a17	-0.010809443
177	0xbe0a607b	-0.13513367
178	0xbd25649d	-0.040379155
179	0xbd1421f8	-0.036165208
180	0xbc327e2a	-0.010894338
181	0xbaeed2c0	-0.0018220767
182	0xbe0c0a79	-0.1367587
183	0xbd6fb26b	-0.058519762
184	0xbc810a9b	-0.015752127
185	0xbcc004ce	-0.023439791
186	0xbce9cf5d	-0.028541261
187	0xbdb74c5b	-0.089501105
188	0x3b558e88	0.0032586176
189	0x3d926c78	0.07149595
190	0x3d52a638	0.05142805
191	0xbdfb9c56	-0.12285678
192	0xbaed8d81	-0.0018123836
193	0xbc4267ba	-0.011865551
194	0x3d21a027	0.039459374
195	0xbd28713b	-0.04112361
196	0xbcc8ff2b	-0.024535736
197	0xbd71cd20	-0.059033513
198	0x3cbff2fd	0.023431296
199	0x3bf9027e	0.007599174
200	0xbd4c9234	-0.049944118
201	0xbbc8ee50	-0.0061319247
202	0x3d073b19	0.033015344
203	0xbcd8cec0	-0.026465774
204	0xbd1f7f28	-0.038939625
205	0x3cd8ad29	0.026449757
206	0x3d22cd80	0.03974676
207	0x3d817067	0.06320267
208	0xbdba402a	-0.090942696
209	0xbe25e4fa	-0.16200629
210	0x3d232891	0.03983361
211	0xbd32adc5	-0.04362275
212	0x3d2f022d	0.042726684
213	0xbcc823dc	-0.024431162
214	0xbd7e50d3	-0.0620888
215	0xbd457743	-0.04820944
216	0x3d0724de	0.032994144
217	0xbd86fc8a	-0.06591137
218	0xbcd2bc86	-0.02572466
219	0xbe032a8d	-0.128092
220	0xb9db2211	-0.00041796317
221	0xbdee7f81	-0.11645413
222	0x3c13eb62	0.009028288
223	0xbba806b1	-0.005127751
224	0xbdbf7463	-0.09348371
225	0xbd9d2c39	-0.076744504
226	0x3d3b4d0b	0.04572777
227	0x3d71f474	0.05907102
228	0xbb9262f5	-0.004467363
229	0xbbf18d60	-0.0073715895
230	0xbd8622c4	-0.065496
231	0xbd6d573a	-0.057944514
232	0xbc448617	-0.01199486
233	0xbc4e973f	-0.012609302
234	0xbb801419	-0.003908646
235	0xbd5ad83f	-0.053428885
236	0x3d68f97b	0.056878548
237	0x3b49a089	0.0030765852
238	0xbd72834d	-0.05920725
239	0xbc104b6d	-0.008807045
240	0xbd4a927e	-0.049456112
241	0xbc0ae0f7	-0.008476487
242	0x3d5b8fee	0.05360406
243	0x3d1c4492	0.03815133
244	0x3d4dc6a6	0.050238274
245	0x3cb68f68	0.022285178
246	0xba535ac4	-0.00080625364
247	0x3c75f933	0.015013027
248	0xbc61cd1c	-0.013781812
249	0x3c04e61b	0.008111502
250	0x3d0896c4	0.033346906
251	0xbd0884f1	-0.033329908
252	0xbcd462d1	-0.025926026
253	0xbcb706c1	-0.022342088
254	0xbdc0ba17	-0.09410494
255	0x3d4d700b	0.05015568

layer_1.bias f4 [128]
0	0x3d46cdbb	0.048536044
1	0x3c1f0ac6	0.009707158
2	0x3c5976e5	0.013272976
3	0xbd535bbd	-0.05160116
4	0xbd99fe36	-0.0751919
5	0x3c1b4132	0.009475993
6	0xbcf079cc	-0.029354952
7	0x3c91ba90	0.017789155
8	0x3c96a9df	0.018391548
9	0xbc9d2368	-0.019181922
10	0xbd31a505	-0.043370266
11	0x3d72228a	0.05911497
12	0xbd2e0629	-0.042486344
13	0xbda0350f	-0.0782262
14	0xba0518a1	-0.00050772174
15	0xbc1903c2	-0.009339275
16	0x3c76d9b1	0.01506655
17	0x3c8b11ba	0.016976226
18	0x3dd5ce00	0.10439682
19	0x3c716d7f	0.014735579
20	0xbd1f7566	-0.03893032
21	0x3db3695e	0.087603316
22	0x3cefd444	0.02927602
23	0x3ddc7a11	0.1076547
24	0xbc139a6e	-0.009008987
25	0x3c8fc74f	0.017551092
26	0x3d979cc5	0.07402948
27	0x3cef4092	0.029205594
28	0x3d36da23	0.044641625
29	0xbe1421eb	-0.14466064
30	0xbd97484d	-0.07386837
31	0x3d12269b	0.03568135
32	0x3cb6b945	0.02230514
33	0xbc6f26b6	-0.014596632
34	0xbca2e5ab	-0.019884905
35	0xbd3c3f81	-0.045959
36	0xbba7a767	-0.0051163915
37	0xbbd52393	-0.006504485
38	0xbd90d2d0	-0.07071459
39	0xbc719749	-0.014745542
40	0x3c7eb451	0.0155459205
41	0xbd88729b	-0.06662484
42	0xbd1cc289	-0.03827146
43	0xbd854cbd	-0.06508777
44	0x3c33cc73	0.010974037
45	0x3ceb803d	0.028747672
46	0xbd88052a	-0.0664161
47	0xbc878b69	-0.016545968
48	0x3e0f930a	0.14020935
49	0xbd2e7c45	-0.04259898
50	0xbcab27a3	-0.020892924
51	0x3c36aabe	0.011149107
52	0x3d67f8da	0.056633808
53	0x3cab2a08	0.020894065
54	0xbc09cbb9	-0.008410388
55	0x3dbcd56a	0.09220393
56	0xbc527c6f	-0.01284705
57	0x3c930965	0.017948816
58	0xbd819364	-0.06326941
59	0x3c0ad833	0.0084743975
60	0x3d1dc098	0.03851375
61	0xbd2a728a	-0.04161314
62	0xbd9ac452	-0.075569764
63	0x3c801ee8	0.015639737
64	0xbd582ab8	-0.052775115
65	0xbcd0d071	-0.025490018
66	0x3c03395a	0.008009279
67	0xbb8d89b3	-0.0043193935
68	0x3d79cc70	0.060985982
69	0xbb0b80c5	-0.002128647
70	0x3ce34a5a	0.027745415
71	0x3d318a44	0.04334475
72	0xbd42a1d8	-0.047517627
73	0xb9c08be3	-0.00036725317
74	0xbc835566	-0.016031932
75	0xbd3b166c	-0.04567568
76	0xbcbe4a26	-0.023228716
77	0x3c5f0483	0.0136119155
78	0x3c05e764	0.008172844
79	0x3c83eabd	0.016103143
80	0x3bb60ed2	0.005555966
81	0xbbab0de7	-0.005220163
82	0xbd6b855a	-0.05750022
83	0x3c053fcb	0.008132885
84	0x3d6d99b1	0.0580079
85	0x3da22c30	0.07918584
86	0xbc179fdf	-0.009254425
87	0x3c7d64e1	0.015465946
88	0xbdb01ed9	-0.08599634
89	0xbd1adbd7	-0.037807312
90	0x3aaa5183	0.0012994263
91	0xbd734ae3	-0.05939759
92	0xbc475a1e	-0.012167482
93	0x3bc5c6c3	0.006035657
94	0x3bcf7627	0.0063312235
95	0xbd777f1b	-0.06042395
96	0xbca73181	-0.020409347
97	0x3bdf6e09	0.006818537
98	0xbd148e99	-0.036268804
99	0x3c4bbf59	0.012435758
100	0x3d969316	0.07352273
101	0x3d322194	0.043489054
102	0xba596a5e	-0.0008293743
103	0xbd57647a	-0.052586056
104	0xbd71d2a6	-0.05903878
105	0x3d5508fe	0.05201053
106	0xbcce9323	-0.025216645
107	0xbdbe917a	-0.09305091
108	0xbd34a2db	-0.044100624
109	0xbcfb831c	-0.030702166
110	0xbae7c6fd	-0.0017683204
111	0xbc362c8b	-0.011119018
112	0xbd170f4e	-0.03687983
113	0xbca0d910	-0.019634753
114	0x3db9fbbe	0.09081219
115	0xbc16a3f6	-0.009194365
116	0x3d557975	0.052117784
117	0xbd810214	-0.062992245
118	0xbc9ae28f	-0.01890686
119	0x3da6bd7a	0.081416085
120	0xbd5187b4	-0.051154807
121	0xbd3448c1	-0.044014696
122	0x3cc365bc	0.023852222
123	0x3cbaacfb	0.022787562
124	0x3cce9582	0.025217775
125	0x3c0e5d6d	0.008689267
126	0x3d0f5b77	0.034999337
127	0xbb841a3c	-0.0040314477

layer_2.weight f4 [64, 128, 5, 5]
0	0x3bb0275c	0.0053757858
1	0xbb807e58	-0.0039213113
2	0xbca282ff	-0.019837854
3	0xbcad8793	-0.02118281
4	0x39a395dc	0.00031201437
5	0xbcac9e4d	-0.021071577
6	0xbb80d6bb	-0.003931848
7	0xbc597022	-0.013271363
8	0xbb2abb71	-0.0026051665
9	0xbbf0fb64	-0.007354187
10	0x3b7dd9fb	0.0038734663
11	0xbca0e5ea	-0.019640882
12	0xbc909fac	-0.017654262
13	0xbb391b6d	-0.0028245107
14	0x3bbf08bb	0.005829898
15	0xbc880e90	-0.016608506
16	0x3b4f91a7	0.003167251
17	0x3c24a5bd	0.010049281
18	0x3ba71795	0.0050992467
19	0x3c3738f5	0.011183013
20	0x3b4f1b1d	0.0031601854
21	0x3ad93279	0.0016570828
22	0xbc637b35	-0.013884355
23	0x3ba5e8f4	0.0050631706
24	0xbcc17059	-0.023613142
25	0xbc95354e	-0.018213894
26	0xbbac7f9d	-0.005264236
27	0xbb72c8b1	-0.003704589
28	0xbc538d89	-0.012912163
29	0x3bc74715	0.0060814717
30	0x3a989331	0.0011640546
31	0xbbd44a38	-0.006478574
32	0x3c07b224	0.008282218
33	0xbb361f27	-0.0027789564
34	0xbcb61d08	-0.02223064
35	0x3b4deac8	0.0031420458
36	0xbb78f88b	-0.003798994
37	0xbcbb62e4	-0.022874303
38	0xbb1ddd0d	-0.0024088055
39	0xbb802852	-0.0039110566
40	0xbc284464	-0.010270212
41	0x3ba7f024	0.0051250625
42	0xbc7818a4	-0.0151425935
43	0xbc3e5152	-0.011616068
44	0xbba023e4	-0.004887091
45	0xbc965c14	-0.018354453
46	0xbcb98b91	-0.022649558
47	0xbc5642c5	-0.0130774425
48	0xbc6b9fc1	-0.01438135
49	0xbb87640b	-0.004131799
50	0xbc8c37b8	-0.017116413
51	0xbbd21862	-0.006411598
52	0xbc3d0d55	-0.011538823
53	0xbb281fa6	-0.002565363
54	0x3b8370e3	0.00401126
55	0xbc9d6c5f	-0.019216714
56	0xbae90199	-0.0017776965
57	0xbc271c7c	-0.010199662
58	0xbc877dfa	-0.016539562
59	0xbbeb32b9	-0.0071776775
60	0x3b314346	0.0027048155
61	0xbc38e8b3	-0.011285949
62	0xbca1d7ef	-0.019756285
63	0xbc8b1842	-0.01697934
64	0x3c25333d	0.010083017
65	0xbc82422e	-0.015900698
66	0xbc8264fe	-0.015917297
67	0xbc82b4be	-0.015955325
68	0x3aa7a69e	0.0012790745
69	0x3b5e087d	0.003387957
70	0xbc4b6681	-0.012414576
71	0x3c2e930a	0.010655174
72	0xbca0764b	-0.019587656
73	0x3bad268a	0.005284135
74	0xbc5488ef	-0.012972101
75	0x3bed259f	0.007237151
76	0x3bdb198b	0.0066863946
77	0x3b94a8d9	0.00453673
78	0xbcbbc553	-0.02292124
79	0xbc5d9a42	-0.013525547
80	0x399d8f67	0.00030052217
81	0x3c00f8e9	0.007871845
82	0x3b8e3b78	0.0043405853
83	0xbba7b0eb	-0.005117526
84	0xbc0529ad	-0.008127612
85	0xbba618ec	-0.005068889
86	0xbc3cbf8e	-0.01152028
87	0x3c049428	0.008091964
88	0xbcbd4dd1	-0.023108395
89	0xbc83aa72	-0.016072486
90	0xbc828620	-0.015933096
91	0x3c1c7e3a	0.009551579
92	0xbc220e40	-0.009891093
93	0xbc42bd15	-0.011885901
94	0x38c38eb2	9.324904e-05
95	0x3c194128	0.009353913
96	0xbbb71522	-0.005587236
97	0xbbdd539d	-0.0067543522
98	0xbc28d481	-0.010304571
99	0x3b929534	0.004473353
100	0xbc63ae90	-0.013896599
101	0xbcb1c0ca	-0.021698374
102	0xbc7af5af	-0.015317365
103	0x3c39fcd0	0.011351779
104	0xbc440075	-0.011963
105	0xbcbf3acc	-0.023343466
106	0xbb9889d3	-0.004655102
107	0x3c1f0f95	0.009708305
108	0x3c197606	0.009366518
109	0xbad0d11d	-0.0015931461
110	0x3bb811e0	0.0056173652
111	0xbc4b834d	-0.012421441
112	0xbcb3137c	-0.021859877
113	0xbc66704f	-0.014064862
114	0x3c2ed917	0.010671875
115	0x3c0527bf	0.008127152
116	0xbbdf9dda	-0.0068242373
117	0xbc4f9857	-0.012670598
118	0xbc120221	-0.00891164
119	0xbac77f5d	-0.0015220452
120	0x3b4c749c	0.0031197434
121	0xbc8d3f52	-0.017242108
122	0x3b6619bd	0.0035110556
123	0x3bfd061e	0.0077216765
124	0x3bebf31c	0.0072006118
125	0xbbe5a199	-0.0070077893
126	0xbcb8a097	-0.022537513
127	0xbc3f02ac	-0.011658352
128	0xbcb26ddb	-0.021780899
129	0x3b03f56c	0.0020135297
130	0xbca83d08	-0.020536914
131	0x3ac5d7e3	0.0015094246
132	0x3c3c0b2a	0.011477271
133	0x3ab28469	0.0013619784
134	0x3badaac5	0.0052998983
135	0xbc9fcd97	-0.019507213
136	0x3c338f19	0.01095941
137	0xbca5b764	-0.020229049
138	0xbbea2e38	-0.007146623
139	0xbb4819c4	-0.0030532936
140	0xbc9094d9	-0.017649101
141	0xbafeae01	-0.0019430519
142	0xbcaa8442	-0.020815019
143	0x3bc5c44e	0.0060353642
144	0x3c250e65	0.010074233
145	0x3b58a8c5	0.003305958
146	0xbc1670a8	-0.009182133
147	0x3c35bd6a	0.011092523
148	0xbb4d2f24	-0.0031308616
149	0xbc8d0abe	-0.017217036
150	0xbc3d6ca9	-0.011561551
151	0xbc8b8f78	-0.017036185
152	0xbc9ec93c	-0.019383065
153	0xbcb4c0f9	-0.022064673
154	0x3c210d1d	0.009829787
155	0xbc6dddca	-0.014518211
156	0x3c2da907	0.010599381
157	0xbc0c04e3	-0.008546087
158	0x3b18a704	0.0023292908
159	0xbc8ab23a	-0.016930688
160	0xbc9e5aee	-0.019330468
161	0x3c375bee	0.011191351
162	0x3bbd4fa9	0.0057773185
163	0xbcbe0736	-0.023196798
164	0x3bf937e6	0.0076055406
165	0x3aa71221	0.0012746492
166	0xbc80619f	-0.01567155
167	0xbc60b312	-0.013714569
168	0xbc82d08a	-0.01596858
169	0xbcae7b53	-0.02129904
170	0xbc459310	-0.012058988
171	0xbca327d2	-0.019916449
172	0xbcaf2b62	-0.021382991
173	0xbca6c5b5	-0.020357946
174	0xbc16a6a7	-0.009195006
175	0xbca45c66	-0.02006359
176	0x3ba77aeb	0.0051110885
177	0xba5b743b	-0.00083715067
178	0xbb6f5368	-0.003651822
179	0xbc0631ea	-0.008190611
180	0x3b47acdb	0.003046802
181	0x3bc3eaa9	0.0059789014
182	0x3bb9e8a6	0.005673486
183	0x3beba05e	0.007190748
184	0xbc90f29e	-0.017693814
185	0x3c2a21ea	0.010384062
186	0xbc7d902c	-0.015476268
187	0xbb9ebe3f	-0.0048444564
188	0x3b76b04d	0.0037641705
189	0x3bb45e20	0.0055043846
190	0xbcc1f0a3	-0.023674315
191	0xbbb384f2	-0.005478495
192	0xbbae79d1	-0.0053245802
193	0xbbc2bf73	-0.0059432327
194	0x3c3f2ebf	0.01166886
195	0x3b57109e	0.00328163
196	0xbc7f462f	-0.015580698
197	0x3c32a35c	0.010903206
198	0xbbb4bd7a	-0.0055157514
199	0xbc79aef9	-0.015239471
200	0x3c0dd0d2	0.008655744
201	0x3a3ba921	0.0007158686
202	0xba826e6f	-0.0009951125
203	0xbc130fef	-0.008975967
204	0xbc4ef50b	-0.012631665
205	0x3b1f60e7	0.0024319233
206	0xbc9bc82f	-0.019016353
207	0xbc85a0ca	-0.016312022
208	0xbc5e52ba	-0.013569528
209	0xbc84ef69	-0.01622744
210	0x3c05c6d9	0.008165085
211	0xbc44b08c	-0.012004983
212	0xbcb70c5d	-0.022344762
213	0xbc200675	-0.0097671645
214	0xbc4e3c9c	-0.012587693
215	0xbc9da45b	-0.01924341
216	0xbca62373	-0.020280575
217	0xbcb4c823	-0.022068089
218	0x3be165a9	0.006878574
219	0xbc1633fe	-0.009167669
220	0x3aeab895	0.0017907793
221	0x3c0f7864	0.008756731
222	0x3c044adc	0.0080744885
223	0xbc7aed42	-0.015315356
224	0xbc202e2c	-0.009776633
225	0xbc08921c	-0.008335616
226	0xbc67874a	-0.0141313765
227	0x3c0d84a9	0.008637586
228	0xbc90a573	-0.017657017
229	0x3bd045cd	0.006355977
230	0xbc3ce863	-0.011530015
231	0xbc36b89d	-0.011152414
232	0x3bb9da41	0.00567177
233	0xbc4ba9e9	-0.012430646
234	0xbc47a588	-0.012185462
235	0xbcbbd7f6	-0.022930127
236	0x3c3f1589	0.011662849
237	0x3c39803d	0.011322078
238	0xba602342	-0.00085501757
239	0xbc2aca0c	-0.010424148
240	0xbc9b4940	-0.018955827
241	0xbaf89cd2	-0.0018967635
242	0xbc9b34ca	-0.01894607
243	0xbcac7720	-0.021052897
244	0xbc6ac0f3	-0.014328229
245	0xbc699734	-0.014257241
246	0xbb8a6ea1	-0.004224614
247	0xbcafb22f	-0.02144727
248	0x3b2436fd	0.002505719
249	0x3bf17a21	0.007369295
250	0xbb2d8fc8	-0.0026483405
251	0xbbba10df	-0.0056782807
252	0xbc8da491	-0.017290385
253	0xbc77cbc3	-0.015124264
254	0x3b9dfda7	0.0048214975
255	0xbba23d45	-0.0049511516

layer_2.bias f4 [64]
0	0xbc335b02	-0.010946991
1	0x3cc9763d	0.024592513
2	0xbc4b7ab4	-0.012419391
3	0x3d4d8cd3	0.05018313
4	0xbc7a4e69	-0.0152774835
5	0xbc6cda11	-0.014456288
6	0x3bea63cf	0.0071530114
7	0xbc15c047	-0.009140081
8	0x3b95c389	0.0045704287
9	0x3c6cd766	0.014455652
10	0xbc8e2e1b	-0.01735597
11	0x3d932f23	0.07186725
12	0xbcbd0510	-0.023073703
13	0xbb5a6fef	-0.0033330878
14	0xbc2ed21b	-0.01067021
15	0xbc99f968	-0.018795684
16	0xbb0bdd44	-0.0021341601
17	0xb824755b	-3.9209943e-05
18	0x3ba31f49	0.0049780947
19	0xbc7de94f	-0.01549752
20	0xbb9bf9ad	-0.0047599883
21	0xbc41ece7	-0.011836267
22	0xbc4868fb	-0.012232061
23	0xbc3e2052	-0.011604385
24	0x3d52f4cf	0.051503
25	0xbb44fad1	-0.0030056725
26	0xbb405f5a	-0.002935371
27	0xbca9e4a4	-0.020738907
28	0x3d52ebb7	0.051494326
29	0xbcb2fc59	-0.021848844
30	0x3d6354ca	0.055500783
31	0xbc40996b	-0.011755328
32	0x3a36b3db	0.00069695496
33	0xb93d3f9f	-0.00018048145
34	0xbc08774b	-0.008329223
35	0x3bd65ddb	0.00654195
36	0xbd898cf5	-0.067163385
37	0xbc68fcc4	-0.01422042
38	0xbcae6b93	-0.02129153
39	0x3d3d58cc	0.04622726
40	0xbca66a67	-0.020314408
41	0x3bdaec18	0.0066809766
42	0x3dcf8d4a	0.101343706
43	0xbc9719ff	-0.018445013
44	0x3c5fdbcc	0.0136632435
45	0xbbbd68c1	-0.00578031
46	0x3ca4ec02	0.020132069
47	0xbb33c16e	-0.0027428525
48	0xbcaac119	-0.02084403
49	0xbc3ae5c1	-0.011407317
50	0x3b878eab	0.0041368804
51	0x3d924c7e	0.07143496
52	0x3d82af6f	0.063811176
53	0x3c827ba7	0.015928103
54	0xbd20eac3	-0.039286386
55	0x3abca2a0	0.0014391728
56	0x3ca7946c	0.020456515
57	0x3c3982d4	0.011322696
58	0x3b0a2efa	0.002108513
59	0xbc3eddbe	-0.011649547
60	0xbbd76d83	-0.006574334
61	0xbc71c8f5	-0.014757385
62	0xbc1a27c2	-0.009408893
63	0xbcbd7440	-0.023126721

layer_3.weight f4 [3, 64, 5, 5]
0	0x3c4cbaed	0.012495738
1	0xbba9c272	-0.0051806504
2	0x3cb2f2ed	0.021844352
3	0xbc07e243	-0.008293691
4	0xbb57a185	-0.003290267
5	0xbc8d6845	-0.017261634
6	0x3c321f0f	0.010871663
7	0xbc748c08	-0.014925964
8	0xbc8cf0d5	-0.017204681
9	0x3caac0e3	0.020843929
10	0xbbb9c51e	-0.00566925
11	0xbc80fed5	-0.015746513
12	0xbc8490cc	-0.016182326
13	0x3cd4532f	0.025918571
14	0x3cb3d7e8	0.021953538
15	0x3cc717a7	0.02430327
16	0xbc837dbe	-0.01605117
17	0xbc708c62	-0.014681907
18	0x3cdaa199	0.026688384
19	0x3cc0f476	0.023554068
20	0x3c9c1805	0.019054422
21	0xbc958579	-0.018252121
22	0x3c2e8898	0.010652684
23	0x3c0125e1	0.007882566
24	0xbc23ffdd	-0.010009733
25	0x3c7ab070	0.015300855
26	0x3d4be1b0	0.04977578
27	0x3bb95722	0.005656139
28	0xbd8d40f0	-0.068971515
29	0xbc0db029	-0.008647957
30	0x3beb9dff	0.0071904655
31	0x3d35018e	0.044190936
32	0x3c48a898	0.012247227
33	0xbd020a97	-0.03174838
34	0xbc062051	-0.008186416
35	0x3cd84dea	0.02640434
36	0x3da9c47c	0.082894295
37	0x3a2e795a	0.0006655656
38	0xbcdc221f	-0.026871739
39	0xbc98bb2b	-0.018643936
40	0xbcfacf8f	-0.03061655
41	0xbc918595	-0.017763892
42	0x3dc9920b	0.098423086
43	0xbd2a1925	-0.041527886
44	0xbcd5e182	-0.026108507
45	0x3d5375d9	0.05162606
46	0xbc832b45	-0.016011843
47	0xbd59a548	-0.05313614
48	0xbd15c518	-0.036564916
49	0xbc187bfc	-0.009306904
50	0x3cf664f6	0.030077439
51	0x3a826da6	0.0009950891
52	0x3d054aa3	0.032541882
53	0x3bfce795	0.0077180364
54	0x3c8278c4	0.015926726
55	0x3c9c7dfb	0.01910304
56	0xbc13eb7f	-0.009028315
57	0x3c8e217a	0.017349947
58	0x3c3def8a	0.011592755
59	0x3cf2c954	0.029637016
60	0x3c68afba	0.014202053
61	0x3cdd0dbe	0.026984092
62	0xbc5845f1	-0.013200269
63	0xbc5933f3	-0.013257015
64	0xbc2dfded	-0.010619623
65	0x3d0f70b8	0.035019606
66	0xbc6142f5	-0.013748874
67	0x3ca3b10b	0.019981882
68	0x3b1335dc	0.0022462523
69	0x3cba7050	0.022758633
70	0x3ccc44b6	0.024935108
71	0xbc137e17	-0.00900223
72	0xbbe7dadf	-0.007075652
73	0xbb97f4da	-0.004637343
74	0xbc50222f	-0.0127034625
75	0xbd6d1ba6	-0.057887696
76	0xbd582187	-0.05276635
77	0xbd1027e3	-0.03519429
78	0xbc078dfe	-0.0082736
79	0xbc9da09c	-0.019241624
80	0xbd754816	-0.0598832
81	0xbd28fd8e	-0.041257434
82	0xbd227cf9	-0.039669964
83	0x3c6c6b95	0.014429946
84	0x3c7303c5	0.014832442
85	0xbca55a38	-0.020184621
86	0x37fa3a94	2.98296e-05
87	0x3cc45c1d	0.023969704
88	0x3cda938a	0.02668168
89	0x3d0474a0	0.032337785
90	0xbad59ed9	-0.0016297951
91	0x3d2a68e8	0.041603953
92	0x3d534bac	0.05158584
93	0x3cc55a26	0.024090838
94	0x3d20306e	0.039108686
95	0x3ba46007	0.00501633
96	0x3cef39e4	0.02920241
97	0x3bf1534d	0.0073646666
98	0x3bfc3303	0.0076965108
99	0x3cd3e1f7	0.025864584
100	0xbc01ab3e	-0.0079143625
101	0x3c757928	0.014982499
102	0x3c7e9363	0.015538069
103	0xbc8edcb5	-0.017439226
104	0xbb5fa0b5	-0.0034122888
105	0x3c3ba81f	0.011453657
106	0x3c685da5	0.014182483
107	0x3c88fa27	0.016720844
108	0xbb82967f	-0.0039852257
109	0x3ccc7572	0.024958346
110	0xbbed8060	-0.0072479695
111	0x3cca194a	0.024670262
112	0x3cfbacae	0.030721989
113	0x3b25f1cf	0.002532113
114	0x3c5a114f	0.013309791
115	0xbc98e7b4	-0.018665172
116	0xbb88a3b6	-0.0041699065
117	0xbc1ce6e5	-0.009576534
118	0x3cbca31e	0.023027
119	0xbc462057	-0.012092671
120	0x3c71899c	0.014742281
121	0xbbd833a2	-0.006597952
122	0xbbd57578	-0.0065142475
123	0x3ce6a546	0.02815498
124	0xbbefe71d	-0.007321252
125	0x3b9b84d5	0.0047460594
126	0x3c7d1227	0.015446222
127	0xbc4110b7	-0.01178377
128	0xbc07d008	-0.008289345
129	0x3c173b2f	0.009230419
130	0xbcb8e9fe	-0.022572514
131	0xbc55b9e3	-0.013044807
132	0xbb9514b1	-0.0045495857
133	0x3c2880cc	0.010284614
134	0x3cf5c9a7	0.030003382
135	0x3c35ccb0	0.011096165
136	0x3cc01bbb	0.023450723
137	0x3c7dc3b0	0.01548855
138	0x3b1b7515	0.002372091
139	0x3cf4d083	0.029884582
140	0x3b2341e6	0.0024911105
141	0x3ba08814	0.0048990343
142	0x3c55da40	0.013052523
143	0x3b841e80	0.004031956
144	0xbc7dc884	-0.015489701
145	0xbc520d7c	-0.012820598
146	0x3ccb4a3c	0.024815671
147	0xbcc84865	-0.024448583
148	0x3a80feb7	0.0009841536
149	0xbc272916	-0.010202667
150	0xbb8caebc	-0.004293291
151	0xbc8dd8e6	-0.01731534
152	0x3cca4492	0.0246909
153	0x3c1ba0b4	0.009498764
154	0x3cb768b0	0.022388786
155	0x3cd54728	0.026034907
156	0x3ccc0546	0.024904858
157	0x3c699656	0.014257034
158	0x3af375e6	0.0018574565
159	0x3c8ea4fb	0.017412653
160	0xbbef83bd	-0.0073094056
161	0xbc1178b1	-0.008878873
162	0xbb837e93	-0.0040128916
163	0x3bdadcea	0.006679167
164	0x3c812d0b	0.015768548
165	0xbc0adc10	-0.008475319
166	0xbbcc5d8d	-0.006236738
167	0x3bdcce35	0.006738449
168	0x3ba49d7e	0.0050236573
169	0xbc4c4007	-0.012466437
170	0xbaacb951	-0.0013177787
171	0x3ce34373	0.027742123
172	0xbc985692	-0.018595967
173	0xba9d8909	-0.0012018989
174	0x3c74889e	0.01492515
175	0x3c322c4f	0.010874822
176	0xbc96a6af	-0.018390028
177	0xbbaadfa8	-0.00521465
178	0x3b5f6be9	0.003409142
179	0xbc598493	-0.013276237
180	0x3c62be21	0.013839276
181	0xbc24a1db	-0.010048355
182	0x3cedb9d4	0.029019274
183	0x3cb16f5a	0.021659542
184	0x3c754418	0.014969848
185	0x3b48b591	0.00306258
186	0xbb58d8dd	-0.0033088245
187	0xbc47702f	-0.012172743
188	0xbc1bfa31	-0.0095200995
189	0x3ca999be	0.020703193
190	0x3cd1639c	0.025560193
191	0x3c11e68f	0.008905067
192	0x3c4b35d8	0.012402974
193	0x3c1c4d67	0.0095399385
194	0xbc66b8bf	-0.014082133
195	0xbbee27ca	-0.007267927
196	0x3c631068	0.013858892
197	0xbc15e807	-0.009149558
198	0x3b26394a	0.0025363737
199	0x3bc490cf	0.005998708
200	0x3d274a5d	0.040842403
201	0x3d0ac171	0.033875886
202	0x3c9abe95	0.018889705
203	0x3cd0c597	0.025484843
204	0x3a439123	0.0007460287
205	0x3b8fb1d2	0.0043852115
206	0x3cdb401e	0.026763972
207	0x3cd961de	0.026535925
208	0x3c67763e	0.014127312
209	0x3bfd8b40	0.007737547
210	0xba3e4c5b	-0.00072593027
211	0x3c9e04fe	0.01928949
212	0x3d044494	0.032291964
213	0x3d0583fe	0.03259658
214	0x3ccc7667	0.024958802
215	0x3cbab04a	0.02278914
216	0x3c71f5e7	0.0147681
217	0x3c575835	0.013143589
218	0x3c7b92cf	0.015354826
219	0xbc414d0e	-0.011798156
220	0xbc0ed735	-0.008718302
221	0x3cbd76fd	0.023128027
222	0x3bd49b5b	0.0064882464
223	0x3d06b934	0.032891467
224	0xbb5cd335	-0.0033695225
225	0xbc15f548	-0.009152718
226	0x3c7452ee	0.01491235
227	0xbb3679c2	-0.002784357
228	0xba4616b4	-0.00075564836
229	0xbcba0595	-0.02270774
230	0xbb76e7c8	-0.0037674773
231	0x3b81b073	0.003957802
232	0x3b9a5b00	0.004710555
233	0xbc8f1645	-0.017466674
234	0xbc65bae1	-0.014021606
235	0xbc988f32	-0.018622968
236	0xbd0ed90c	-0.03487496
237	0xbd179f13	-0.03701694
238	0xbc2c95a2	-0.010533722
239	0x3b9b6f5b	0.004743499
240	0x3aac4fe3	0.0013146367
241	0xbca0894b	-0.019596716
242	0xbcb53e8e	-0.022124555
243	0xbc5dbc8b	-0.013533722
244	0x3c889f54	0.016677536
245	0xbc7e9979	-0.01553952
246	0xbd1ee35a	-0.038791038
247	0x3c3136e7	0.010816312
248	0x3bb18344	0.0054172594
249	0x3cb34775	0.02188466
250	0x3ba0e998	0.004910659
251	0x3bd99e5f	0.0066411938
252	0x3ca59b17	0.020215554
253	0x3cde0df5	0.027106265
254	0xbc6c5415	-0.014424344
255	0xbb8ba844	-0.004262002

layer_3.bias f4 [3]
0	0x3cc03ef0	0.023467511
1	0x3c9301e9	0.017945247
2	0x3cc40a41	0.02393067
