checkpoints/epoch1.pth (torch, 966014 bytes, 6 tensors)

layer_1.weight f4 [128, 3, 9, 9]
0.012831056 0.025392983 0.037060387 0.00744236 -0.044557992 0.014613985 0.009070925 -0.0072024614
-0.049275596 0.004444149 0.010172696 -0.049847778 0.050192147 0.049812075 -0.032868408 -0.033102
0.022468127 -0.025071125 -0.072212905 0.009853878 0.038433325 -0.0460294 0.039503712 0.00897294
0.03247637 0.04733393 -0.022916285 -0.039316364 -0.046729002 -0.044151574 -0.053417686 0.05617193
0.025499482 0.0061896574 -0.049315915 -0.039775137 0.020236723 -0.059095517 -0.07190541 0.008215527
0.050565053 -0.07150882 0.011145618 -0.07551351 -0.01469236 0.0011444932 -0.002480597 -0.082749054
0.00869298 0.009085743 -0.065726615 0.02866072 -0.032986064 -0.02478673 0.007884049 -0.0033026093
-0.068191476 0.037486915 0.03203071 -0.0056384197 -0.008846301 0.004376392 0.017819207 -0.031510785
0.01701433 0.020585181 -0.073358096 0.02519032 -0.03877779 -0.077935696 0.02861769 0.0064488705
-0.0056620724 -0.012278201 0.022339087 0.040737856 0.01587102 -0.00680672 0.0468797 -0.058083978
-0.011537138 -0.07433524 -0.014116809 0.014662781 -0.042781945 -0.06343915 -0.082808256 -0.055852804
0.0116116535 -0.012237163 -0.014897332 0.030219126 -0.05390826 0.0062768925 -0.021366917 -0.04975414
-0.03952693 -0.0768266 -0.027478743 -0.052674726 0.031537015 -0.059006006 0.020888554 -0.050502423
0.04473837 -0.03617352 0.046290483 -0.05149827 -0.059467927 -0.0110625215 -0.021205569 -0.008907854
-0.07178253 -0.07676746 0.0147531545 0.0169989 0.020416029 0.019494712 -0.02558582 -0.041548345
0.014354269 -0.043341953 -0.091770664 -0.052670825 0.018754771 0.0057866154 -0.017533915 -0.0735658
-0.041025367 0.01651284 -0.08773918 0.031661138 -0.044185743 -0.0022331239 -0.03809499 -0.0031624506
0.040338617 -0.0032889992 -0.07673862 -0.04294541 -0.020925658 0.025487863 -0.03289558 0.026067045
-0.0049193273 -0.009935816 0.0025364337 -0.026133524 0.041212562 -0.03493235 0.022982702 -0.0144521855
0.018135272 -0.0025415819 -0.053035315 0.018978 -0.0569872 -0.07476363 -0.0020361866 -0.06345714
-0.07441879 -0.00861147 -0.0072341682 -0.039356902 0.021744292 -0.023802252 0.020943139 0.0041388413
-0.013667266 0.047825858 0.004911822 -0.06345201 -0.035378903 -0.031350654 -0.001548303 -0.04596893
0.03115986 -0.07490977 0.007036545 -0.031677745 -0.02931206 -0.018841138 -0.07237626 -0.03636159
-0.03498318 -0.021901008 0.021411572 -0.012775095 0.027294481 0.034137413 0.044724774 -0.048257846
-0.018936211 -0.044306345 0.020693302 -0.021581449 0.012072972 -0.051934388 -0.00984716 0.025722004
0.029122263 -0.036235906 -0.020529015 -0.07138459 -0.061586373 0.016553635 0.040957525 0.04868203
-0.061532006 -0.07235405 0.036468495 -0.074950226 0.016563281 -0.028837407 -0.067806624 -0.028311415
0.038689423 -0.048388362 0.036075052 -0.06842025 0.042361487 -0.07061399 0.048983414 0.013020941
-0.059832275 -0.07829545 0.03257185 0.034380745 -0.015436702 -0.008452018 -0.058842808 -0.06450342
-0.034373704 -0.00628638 -0.002576922 -0.06478723 0.037440352 -0.002695112 -0.061254486 -0.015554658
-0.069607586 -0.031613193 0.057859924 0.033672422 0.033050235 0.01595928 -0.0038636725 0.005849942
-0.0051762424 0.014823153 0.03393011 -0.043018993 -0.032425597 -0.024087168 -0.06415279 0.044526402
00000000: 5939 523c f204 d03c a2cc 173d 0adf f33b
00000010: 7182 36bd 7f6f 6f3c 389e 143c a002 ecbb
00000020: 35d5 49bd 39a0 913b 61ab 263c 2f2d 4cbd
00000030: 4896 4d3d bf07 4c3d 06a1 06bd f695 07bd
00000040: 140f b83c f661 cdbc 5ce4 93bd 2972 213c
00000050: 436c 1d3d 5389 3cbd a5ce 213d 3d03 133c
00000060: f105 053d 39e1 413d efba bbbc 320a 21bd
00000070: e966 3fbd 48d8 34bd 81cc 5abd 8a14 663d
00000080: 4ae4 d03c 9cd2 ca3b 7cff 49bd 41eb 22bd
00000090: 7cc7 a53c 240e 72bd 2543 93bd 6b9a 063c
000000a0: 4d1d 4f3d 3773 92bd 1c9c 363c d4a6 9abd
000000b0: 39b8 70bc d202 963a 8391 22bb 5678 a9bd
000000c0: 006d 0e3c 5edc 143c ad9b 86bd e3c9 ea3c
000000d0: 651c 07bd 8a0d cbbc 192c 013c 9770 58bb
000000e0: f9a7 8bbd e18b 193d a232 033d 7ec2 b8bb
000000f0: 13f0 10bc d667 8f3b 96f9 913c 7411 01bd
00000100: a361 8b3c 41a2 a83c c53c 96bd ee5b ce3c
00000110: 76d5 1ebd c09c 9fbd a56f ea3c 0c51 d33b
00000120: e888 b9bb 822a 49bc 7600 b73c bddc 263d
00000130: f103 823c e80a dfbb ee04 403d 77e9 6dbd
00000140: 4406 3dbc 133d 98bd 304a 67bc 293c 703c
00000150: 1f3c 2fbd 63ec 81bd 6097 a9bd e9c5 64bd
00000160: ce3e 3e3c 627e 48bc f013 74bc 1a8e f73c
00000170: e8ce 5cbd 64ae cd3b ac09 afbc ffca 4bbd
00000180: fde6 21bd 4457 9dbd 1a1b e1bc 74c1 57bd
00000190: f52c 013d 48b0 71bd 791e ab3c a1db 4ebd
000001a0: 953f 373d af2a 14bd 179b 3d3d daef 52bd
000001b0: a494 73bd 943f 35bc 4db7 adbc 3ff2 11bc
000001c0: b802 93bd 4238 9dbd 37b7 713c 4741 8b3c
000001d0: 843f a73c 60b3 9f3c 5b99 d1bc 992e 2abd
000001e0: 2b2e 6b3c 5587 31bd 42f2 bbbd 5dbd 57bd
000001f0: 9ba3 993c a69d bd3b 49a3 8fbc aba9 96bd
00000200: 370a 28bd ef45 873c 99b0 b3bd 1caf 013d
00000210: 1cfc 34bd 9a59 12bb 7e09 1cbd 1e41 4fbb
00000220: 1b3a 253d 408c 57bb 2329 9dbd 87e7 2fbd
00000230: 496c abbc eccb d03c 84bd 06bd 8e8a d53c
00000240: 4f32 a1bb d5c9 22bc 4c3a 263b f915 d6bc
00000250: 81ce 283d 3915 0fbd 3846 bc3c dcc8 6cbc
00000260: 6c90 943c ab90 26bb 8f3b 59bd c077 9b3c
00000270: 696b 69bd ad1d 99bd 8b71 05bb d1f5 81bd
00000280: e168 98bd 2017 0dbc 9a0c edbb b434 21bd
00000290: 1621 b23c f1fc c2bc f290 ab3c 1e9f 873b
000002a0: abec 5fbc 0ce5 433d 59f3 a03b 21f3 81bd
000002b0: 78e9 10bd 8b69 00bd 6df0 caba eb49 3cbd
000002c0: f642 ff3c 4b6a 99bd d192 e63b 86c0 01bd
000002d0: d81f f0bc bb58 9abc 013a 94bd e4ef 14bd
000002e0: 864a 0fbd be69 b3bc 5267 af3c a24e 51bc
000002f0: ad98 df3c acd3 0b3d 5331 373d 05aa 45bd
00000300: 1d20 9bbc 927a 35bd 0085 a93c 94cb b0bc
00000310: b7cd 453c 27b9 54bd fc55 21bc f4b6 d23c
00000320: d091 ee3c 1a6c 14bd 772c a8bc 1532 92bd
00000330: fe41 7cbd 7d9b 873c 14c3 273d cf66 473d
00000340: fc08 7cbd 5c2e 94bd fd5f 153d 817f 99bd
00000350: b8af 873c 6d3c ecbc 33de 8abd 57ed e7bc
00000360: cd78 1e3d e032 46bd 6fc3 133d eb1f 8cbd
00000370: 3d83 2d3d 119e 90bd d5a2 483d c955 553c
00000380: b012 75bd 5d59 a0bd 0f6a 053d d3d2 0c3d
00000390: 39ea 7cbc 557a 0abc 2805 71bd 5e1a 84bd
000003a0: 71cb 0cbd fafd cdbb 94e1 28bb 2baf 84bd
000003b0: 0e5b 193d 7aa0 30bb fce5 7abd f7d8 7ebc
000003c0: 6c8e 8ebd d67c 01bd 87fe 6c3d 18ec 093d
000003d0: af5f 073d 09bd 823c ab35 7dbb dfb0 bf3b
000003e0: 789d a9bb cfdc 723c 4dfa 0a3d af34 30bd
000003f0: b4d0 04bd 7452 c5bc 8a62 83bd 5161 363d

layer_1.bias f4 [128]
0.020938205 0.008453076 -0.044022907 0.007620467 -0.016955858 -0.014768939 -0.01744269 -0.0015123945
0.03871439 -0.042129993 -0.040307157 0.05010166 -0.028992126 -0.06288959 0.006595457 0.0044589783
-0.012630216 0.043732077 0.04564208 0.05959269 0.0028809183 0.03574239 0.04980755 0.084035
-0.009008987 0.028817449 0.015927443 0.06717642 0.0051318845 -0.059622012 -0.06788058 0.048843477
0.09128504 -0.009786863 -0.009693281 -0.0405559 0.027078174 -0.004622697 -0.0605231 0.008523618
0.02944402 -0.046290215 -0.03589094 -0.05359466 0.016242243 0.023785332 -0.06681912 0.0023422004
-0.012130125 -0.037179288 0.023554146 0.009236625 0.030355074 0.015063244 0.03109414 0.087980315
-0.0064157066 0.0466933 -0.068372756 0.07250722 0.08432202 -0.039927006 0.012214254 0.0067891013
-0.048965972 -0.0013086924 0.00976812 -0.0036243282 0.013110099 -0.009043521 0.036282353 0.042893924
-0.039609097 -0.0074305786 -0.04592194 -0.044998333 -0.06989616 0.0145838065 0.0014472054 0.005169987
0.0077650417 0.01706712 -0.05945288 0.0052587828 0.032572035 0.029175667 0.017470608 0.017691523
-0.08502545 -0.023829412 0.04974727 -0.045396276 -0.00055456517 0.040770248 0.004476476 -0.03658745
-0.003623438 0.053576924 -0.012595712 0.00047322764 0.056717295 0.031973608 0.015779618 -0.05009681
-0.054517888 0.032771427 -0.019424956 -0.068410695 -0.03709745 -0.014904922 0.009329331 -0.0025209244
-0.03886881 -0.015343241 0.08952485 -0.0020044367 0.050393708 -0.04988323 -0.01890686 0.036306623
0.04433831 -0.032254323 0.05261978 0.0046763145 0.04126262 0.030050343 0.043508846 -0.01219003
00000000: 9986 ab3c c57e 0a3c 5d51 34bd 1cb5 f93b
00000010: 03e7 8abc 6cf9 71bc f9e3 8ebc 8a3b c6ba
00000020: fb92 1e3d 8090 2cbd 1e19 25bd 6637 4d3d
00000030: e580 edbc 42cc 80bd b41e d83b 9f1c 923b
00000040: f7ee 4ebc 6820 333d 31f3 3a3d 7717 743d
00000050: cacd 3c3b 9d66 123d 0003 4c3d 8b1a ac3d
00000060: 6e9a 13bc 9212 ec3c 457a 823c ca93 893d
00000070: 5e29 a83b 3636 74bd f904 8bbd 1910 483d
00000080: a7f3 ba3d 1459 20bc 91d0 1ebc f21d 26bd
00000090: 0cd3 dd3c fe79 97bb 12e7 77bd a5a6 0b3c
000000a0: 9634 f13c cf9a 3dbd 6102 13bd 1386 5bbd
000000b0: 740e 853c 75d9 c23c 76d8 88bd 9a7f 193b
000000c0: 6fbd 46bc 4f49 18bd a0f4 c03c 3755 173c
000000d0: 34ab f83c d3cb 763c 23b9 fe3c 062f b43d
000000e0: d93a d2bb 7941 3f3d 0407 8cbd aa7e 943d
000000f0: 06b1 ac3d 808a 23bd 4b1e 483c 1c77 de3b
00000100: 8b90 48bd 6e88 abba 770a 203c 2386 6dbb
00000110: becb 563c 472b 14bc ce9c 143d 8ab1 2f3d
00000120: 263d 22bd 367c f3bb a518 3cbd 2c50 38bd
00000130: b825 8fbd ebf0 6e3c 28b0 bd3a ff68 a93b
00000140: e471 fe3b 58d0 8b3c dd84 73bd de51 ac3b
00000150: 416a 053d cf01 ef3c 851e 8f3c d0ed 903c
00000160: d321 aebd e635 c3bc cbc3 4b3d 72f1 39bd
00000170: 3d60 11ba b4fe 263d 67af 923b b9dc 15bd
00000180: 3477 6dbb 7a73 5b3d 3f5e 4ebc 8a1b f839
00000190: 6550 683d c2f6 023d 4244 813c 5032 4dbd
000001a0: 264e 5fbd 553b 063d 1621 9fbc e81a 8cbd
000001b0: 7ff3 17bd c633 74bc 0dda 183c 1836 25bb
000001c0: e734 1fbd 3862 7bbc ce58 b73d de5c 03bb
000001d0: a269 4e3d 5c52 4cbd 8fe2 9abc 41b6 143d
000001e0: 169c 353d 1c1d 04bd d787 573d c53b 993b
000001f0: fe02 293d 232c f63c 5536 323d b1b8 47bc

layer_2.weight f4 [64, 128, 5, 5]
0.0053757858 -0.0039213113 -0.019837854 -0.02118281 0.00031201437 -0.021071577 -0.003931848 -0.013271363
-0.0026051665 -0.007354187 0.0038734663 -0.019640882 -0.017654262 -0.0028245107 0.005829898 -0.016608506
0.003167251 0.010049281 0.0050992467 0.011183013 0.0031601854 0.0016570828 -0.013884355 0.0050631706
-0.023613142 -0.018213894 -0.005264236 -0.003704589 -0.012912163 0.0060814717 0.0011640546 -0.006478574
0.008282218 -0.0027789564 -0.02223064 0.0031420458 -0.003798994 -0.022874303 -0.0024088055 -0.0039110566
-0.010270212 0.0051250625 -0.0151425935 -0.011616068 -0.004887091 -0.018354453 -0.022649558 -0.0130774425
-0.01438135 -0.004131799 -0.017116413 -0.006411598 -0.011538823 -0.002565363 0.00401126 -0.019216714
-0.0017776965 -0.010199662 -0.016539562 -0.0071776775 0.0027048155 -0.011285949 -0.019756285 -0.01697934
0.010083017 -0.015900698 -0.015917297 -0.015955325 0.0012790745 0.003387957 -0.012414576 0.010655174
-0.019587656 0.005284135 -0.012972101 0.007237151 0.0066863946 0.00453673 -0.02292124 -0.013525547
0.00030052217 0.007871845 0.0043405853 -0.005117526 -0.008127612 -0.005068889 -0.01152028 0.008091964
-0.023108395 -0.016072486 -0.015933096 0.009551579 -0.009891093 -0.011885901 9.324904e-05 0.009353913
-0.005587236 -0.0067543522 -0.010304571 0.004473353 -0.013896599 -0.021698374 -0.015317365 0.011351779
-0.011963 -0.023343466 -0.004655102 0.009708305 0.009366518 -0.0015931461 0.0056173652 -0.012421441
-0.021859877 -0.014064862 0.010671875 0.008127152 -0.0068242373 -0.012670598 -0.00891164 -0.0015220452
0.0031197434 -0.017242108 0.0035110556 0.0077216765 0.0072006118 -0.0070077893 -0.022537513 -0.011658352
-0.021780899 0.0020135297 -0.020536914 0.0015094246 0.011477271 0.0013619784 0.0052998983 -0.019507213
0.01095941 -0.020229049 -0.007146623 -0.0030532936 -0.017649101 -0.0019430519 -0.020815019 0.0060353642
0.010074233 0.003305958 -0.009182133 0.011092523 -0.0031308616 -0.017217036 -0.011561551 -0.017036185
-0.019383065 -0.022064673 0.009829787 -0.014518211 0.010599381 -0.008546087 0.0023292908 -0.016930688
-0.019330468 0.011191351 0.0057773185 -0.023196798 0.0076055406 0.0012746492 -0.01567155 -0.013714569
-0.01596858 -0.02129904 -0.012058988 -0.019916449 -0.021382991 -0.020357946 -0.009195006 -0.02006359
0.0051110885 -0.00083715067 -0.003651822 -0.008190611 0.003046802 0.0059789014 0.005673486 0.007190748
-0.017693814 0.010384062 -0.015476268 -0.0048444564 0.0037641705 0.0055043846 -0.023674315 -0.005478495
-0.0053245802 -0.0059432327 0.01166886 0.00328163 -0.015580698 0.010903206 -0.0055157514 -0.015239471
0.008655744 0.0007158686 -0.0009951125 -0.008975967 -0.012631665 0.0024319233 -0.019016353 -0.016312022
-0.013569528 -0.01622744 0.008165085 -0.012004983 -0.022344762 -0.0097671645 -0.012587693 -0.01924341
-0.020280575 -0.022068089 0.006878574 -0.009167669 0.0017907793 0.008756731 0.0080744885 -0.015315356
-0.009776633 -0.008335616 -0.0141313765 0.008637586 -0.017657017 0.006355977 -0.011530015 -0.011152414
0.00567177 -0.012430646 -0.012185462 -0.022930127 0.011662849 0.011322078 -0.00085501757 -0.010424148
-0.018955827 -0.0018967635 -0.01894607 -0.021052897 -0.014328229 -0.014257241 -0.004224614 -0.02144727
0.002505719 0.007369295 -0.0026483405 -0.0056782807 -0.017290385 -0.015124264 0.0048214975 -0.0049511516
00000000: 5c27 b03b 587e 80bb ff82 a2bc 9387 adbc
00000010: dc95 a339 4d9e acbc bbd6 80bb 2270 59bc
00000020: 71bb 2abb 64fb f0bb fbd9 7d3b eae5 a0bc
00000030: ac9f 90bc 6d1b 39bb bb08 bf3b 900e 88bc
00000040: a791 4f3b bda5 243c 9517 a73b f538 373c
00000050: 1d1b 4f3b 7932 d93a 357b 63bc f4e8 a53b
00000060: 5970 c1bc 4e35 95bc 9d7f acbb b1c8 72bb
00000070: 898d 53bc 1547 c73b 3193 983a 384a d4bb
00000080: 24b2 073c 271f 36bb 081d b6bc c8ea 4d3b
00000090: 8bf8 78bb e462 bbbc 0ddd 1dbb 5228 80bb
000000a0: 6444 28bc 24f0 a73b a418 78bc 5251 3ebc
000000b0: e423 a0bb 145c 96bc 918b b9bc c542 56bc
000000c0: c19f 6bbc 0b64 87bb b837 8cbc 6218 d2bb
000000d0: 550d 3dbc a61f 28bb e370 833b 5f6c 9dbc
000000e0: 9901 e9ba 7c1c 27bc fa7d 87bc b932 ebbb
000000f0: 4643 313b b3e8 38bc efd7 a1bc 4218 8bbc
00000100: 3d33 253c 2e42 82bc fe64 82bc beb4 82bc
00000110: 9ea6 a73a 7d08 5e3b 8166 4bbc 0a93 2e3c
00000120: 4b76 a0bc 8a26 ad3b ef88 54bc 9f25 ed3b
00000130: 8b19 db3b d9a8 943b 53c5 bbbc 429a 5dbc
00000140: 678f 9d39 e9f8 003c 783b 8e3b ebb0 a7bb
00000150: ad29 05bc ec18 a6bb 8ebf 3cbc 2894 043c
00000160: d14d bdbc 72aa 83bc 2086 82bc 3a7e 1c3c
00000170: 400e 22bc 15bd 42bc b28e c338 2841 193c
00000180: 2215 b7bb 9d53 ddbb 81d4 28bc 3495 923b
00000190: 90ae 63bc cac0 b1bc aff5 7abc d0fc 393c
000001a0: 7500 44bc cc3a bfbc d389 98bb 950f 1f3c
000001b0: 0676 193c 1dd1 d0ba e011 b83b 4d83 4bbc
000001c0: 7c13 b3bc 4f70 66bc 17d9 2e3c bf27 053c
000001d0: da9d dfbb 5798 4fbc 2102 12bc 5d7f c7ba
000001e0: 9c74 4c3b 523f 8dbc bd19 663b 1e06 fd3b
000001f0: 1cf3 eb3b 99a1 e5bb 97a0 b8bc ac02 3fbc
00000200: db6d b2bc 6cf5 033b 083d a8bc e3d7 c53a
00000210: 2a0b 3c3c 6984 b23a c5aa ad3b 97cd 9fbc
00000220: 198f 333c 64b7 a5bc 382e eabb c419 48bb
00000230: d994 90bc 01ae feba 4284 aabc 4ec4 c53b
00000240: 650e 253c c5a8 583b a870 16bc 6abd 353c
00000250: 242f 4dbb be0a 8dbc a96c 3dbc 788f 8bbc
00000260: 3cc9 9ebc f9c0 b4bc 1d0d 213c cadd 6dbc
00000270: 07a9 2d3c e304 0cbc 04a7 183b 3ab2 8abc
00000280: ee5a 9ebc ee5b 373c a94f bd3b 3607 bebc
00000290: e637 f93b 2112 a73a 9f61 80bc 12b3 60bc
000002a0: 8ad0 82bc 537b aebc 1093 45bc d227 a3bc
000002b0: 622b afbc b5c5 a6bc a7a6 16bc 665c a4bc
000002c0: eb7a a73b 3b74 5bba 6853 6fbb ea31 06bc
000002d0: dbac 473b a9ea c33b a6e8 b93b 5ea0 eb3b
000002e0: 9ef2 90bc ea21 2a3c 2c90 7dbc 3fbe 9ebb
000002f0: 4db0 763b 205e b43b a3f0 c1bc f284 b3bb
00000300: d179 aebb 73bf c2bb bf2e 3f3c 9e10 573b
00000310: 2f46 7fbc 5ca3 323c 7abd b4bb f9ae 79bc
00000320: d2d0 0d3c 21a9 3b3a 6f6e 82ba ef0f 13bc
00000330: 0bf5 4ebc e760 1f3b 2fc8 9bbc caa0 85bc
00000340: ba52 5ebc 69ef 84bc d9c6 053c 8cb0 44bc
00000350: 5d0c b7bc 7506 20bc 9c3c 4ebc 5ba4 9dbc
00000360: 7323 a6bc 23c8 b4bc a965 e13b fe33 16bc
00000370: 95b8 ea3a 6478 0f3c dc4a 043c 42ed 7abc
00000380: 2c2e 20bc 1c92 08bc 4a87 67bc a984 0d3c
00000390: 73a5 90bc cd45 d03b 63e8 3cbc 9db8 36bc
000003a0: 41da b93b e9a9 4bbc 88a5 47bc f6d7 bbbc
000003b0: 8915 3f3c 3d80 393c 4223 60ba 0cca 2abc
000003c0: 4049 9bbc d29c f8ba ca34 9bbc 2077 acbc
000003d0: f3c0 6abc 3497 69bc a16e 8abb 2fb2 afbc
000003e0: fd36 243b 217a f13b c88f 2dbb df10 babb
000003f0: 91a4 8dbc c3cb 77bc a7fd 9d3b 453d a2bb

layer_2.bias f4 [64]
-0.010946991 0.002897217 -0.0070781503 0.05771036 -0.0152774835 0.0032208208 0.0071530114 -0.009140081
0.0030984303 0.01474868 -0.01735597 0.051080987 -0.023073703 -0.0033330878 -0.010208281 -0.018795684
-0.0021341601 0.00096418237 0.0049780947 -0.01549752 -0.0047599883 -0.011836267 -0.012232061 -0.011604385
0.039001647 0.013943908 -0.002935371 -0.020738907 0.0103698755 -0.021848844 0.009832402 -0.011755328
0.012783133 -0.00018048145 -0.008329223 0.00654195 -0.040100772 -0.01422042 -0.02129153 0.035523083
-0.020314408 0.0066809766 0.03608076 -0.018445013 0.009702652 0.0076185153 0.0047127362 0.024300767
-0.02084403 -0.011407317 -0.01982857 0.07789735 0.06680736 -0.006838616 -0.018610226 0.0014391728
0.020400453 0.011322696 0.002108513 -0.011649547 -0.006574334 -0.014757385 -0.009408893 -0.023126721
00000000: 025b 33bc 3cdf 3d3b d4ef e7bb b361 6c3d
00000010: 694e 7abc 6814 533b cf63 ea3b 47c0 15bc
00000020: 090f 4b3b 73a4 713c 1b2e 8ebc 4c3a 513d
00000030: 1005 bdbc ef6f 5abb a240 27bc 68f9 99bc
00000040: 44dd 0bbb 2fc1 7c3a 491f a33b 4fe9 7dbc
00000050: adf9 9bbb e7ec 41bc fb68 48bc 5220 3ebc
00000060: 31c0 1f3d fd74 643c 5a5f 40bb a4e4 a9bc
00000070: 69e6 293c 59fc b2bc 1518 213c 6b99 40bc
00000080: 5970 513c 9f3f 3db9 4b77 08bc db5d d63b
00000090: b540 24bd c4fc 68bc 936b aebc a780 113d
000000a0: 676a a6bc 18ec da3b 6bc9 133d ff19 97bc
000000b0: dff7 1e3c bda4 f93b 4c6d 9a3b 6712 c73c
000000c0: 19c1 aabc c1e5 3abc 866f a2bc a588 9f3d
000000d0: 4cd2 883d 7816 e0bb 7974 98bc a0a2 bc3a
000000e0: da1e a73c d482 393c fa2e 0a3b bedd 3ebc
000000f0: 836d d7bb f5c8 71bc c227 1abc 4074 bdbc

layer_3.weight f4 [3, 64, 5, 5]
0.012495738 -0.0051806504 0.021844352 -0.008293691 -0.003290267 -0.017261634 0.010871663 -0.014925964
-0.017204681 0.020843929 -0.00566925 -0.015746513 -0.016182326 0.025918571 0.021953538 0.02430327
-0.01605117 -0.014681907 0.026688384 0.023554068 0.019054422 -0.018252121 0.010652684 0.007882566
-0.010009733 0.022816079 0.04796075 -0.0046382584 -0.07501489 -0.006482305 0.013313811 0.035125818
0.018011162 -0.031284284 -0.0018411702 0.01684985 0.061639983 0.0025112943 -0.026555777 -0.026284918
-0.01891687 -0.011724314 0.08271649 -0.032272328 -0.027216753 0.048789002 -0.011885926 -0.031950008
-0.025031986 -0.006202335 0.024849596 -0.0042350125 0.027309893 0.002484676 0.010692653 0.013876031
-0.014257081 0.012118798 0.0063595106 0.02440264 0.008976096 0.021755766 -0.018431773 -0.018491074
-0.015854271 0.029793039 -0.018978957 0.014748064 -0.0029898211 0.017523224 0.019706456 -0.014235039
-0.012312205 -0.009875219 -0.017939527 -0.04880478 -0.018820198 -0.012365208 0.0023251018 -0.032116145
-0.046980534 -0.019746013 -0.03900613 0.0025743034 -0.005054046 -0.03360733 0.0070864274 0.02691191
0.0187622 0.011977909 -0.0003033842 0.033630956 0.037427988 0.010893101 0.02419993 0.019297218
0.03253107 -0.010617143 0.0130030755 0.020868264 -0.0079143625 0.014982499 0.015538069 -0.017439226
-0.0034122888 0.011453657 0.014182483 0.016720844 -0.0039852257 0.024958346 -0.0072479695 0.024670262
0.030721989 0.002532113 0.013309791 -0.018665172 -0.0041699065 -0.009576534 0.023027 -0.012092671
0.014742281 -0.006597952 -0.0065142475 0.02815498 -0.007321252 0.007789453 0.019369863 -0.0073184953
-0.005002233 0.009875342 -0.024966279 -0.013279661 -0.0021124945 0.0120989345 0.03048289 0.0073040402
0.020609163 0.01100962 -0.0032214024 0.023865176 0.0014265304 0.0072206818 0.011727122 0.0012864942
-0.021780146 -0.01831228 0.021315232 -0.029895278 -0.0026110883 -0.014013894 -0.004293291 -0.01731534
0.0246909 0.009498764 0.022388786 0.026034907 0.024904858 0.014257034 0.0018574565 0.017412653
-0.0073094056 -0.008878873 -0.0040128916 0.006679167 0.015768548 -0.008475319 -0.006236738 0.006738449
0.0050236573 -0.012466437 -0.0013177787 0.027742123 -0.018595967 -0.0012018989 0.01492515 0.010874822
-0.018390028 -0.00521465 0.003409142 -0.013276237 0.013839276 -0.010048355 0.029019274 0.021659542
0.014969848 0.00306258 -0.0033088245 -0.012172743 -0.0095200995 0.020703193 0.025560193 0.008905067
0.012402974 0.0095399385 -0.014082133 -0.007267927 0.013858892 -0.009149558 0.0025363737 0.005998708
0.03706377 0.030118925 0.01518353 0.021351619 -0.003646832 8.43451e-05 0.02234342 0.021859907
0.009395605 0.0030895215 -0.0045870664 0.015409113 0.02835593 0.028227357 0.021090688 0.019919608
0.01152167 0.009294013 0.010882156 -0.01493868 -0.0092928745 0.02184006 0.004396697 0.029920042
-0.005652249 -0.0083524315 0.016873227 -0.0012743488 0.004230631 -0.017833108 -0.006044606 0.0054182797
0.008687987 -0.013054425 -0.012118967 -0.016785558 -0.029135192 -0.029088069 -0.0049873237 0.007818518
0.0038639703 -0.01315585 -0.015774205 -0.010732888 0.015823374 -0.017989125 -0.033777848 0.012594377
0.00078536343 0.0135580925 0.004910659 0.0066411938 0.020215554 0.027106265 -0.014424344 -0.004262002
00000000: edba 4c3c 72c2 a9bb edf2 b23c 43e2 07bc
00000010: 85a1 57bb 4568 8dbc 0f1f 323c 088c 74bc
00000020: d5f0 8cbc e3c0 aa3c 1ec5 b9bb d5fe 80bc
00000030: cc90 84bc 2f53 d43c e8d7 b33c a717 c73c
00000040: be7d 83bc 628c 70bc 99a1 da3c 76f4 c03c
00000050: 0518 9c3c 7985 95bc 9888 2e3c e125 013c
00000060: ddff 23bc c9e8 ba3c 7e72 443d 88fc 97bb
00000070: 68a1 99bd 8469 d4bb 2c22 5a3c 17e0 0f3d
00000080: 258c 933c f323 00bd 6c53 f1ba b208 8a3c
00000090: 357a 7c3d 8794 243b 808b d9bc 7853 d7bc
000000a0: 8df7 9abc 5617 40bc 4367 a93d fd2f 04bd
000000b0: abf5 debc fad6 473d 30bd 42bc 03de 02bd
000000c0: e10f cdbc f53c cbbb 6191 cb3c dcc5 8abb
000000d0: ffb8 df3c f2d5 223b 3d30 2f3c 4b58 633c
000000e0: 8896 69bc ec8d 463c 7163 d03b 0ce8 c73c
000000f0: 7a10 133c 2639 b23c 3bfe 96bc 987a 97bc
00000100: d1e0 81bc 8810 f43c c279 9bbc dda1 713c
00000110: e0f0 43bb dd8c 8f3c 6f6f a13c 153a 69bc
00000120: 21b9 49bc accb 21bc eaf5 92bc 85e7 47bd
00000130: d12c 9abc 7197 4abc bc60 183b 388c 03bd
00000140: a96e 40bd 64c2 a1bc e4c4 1fbd a5b5 283b
00000150: 699c a5bb d7a7 09bd 4335 e83b 5e76 dc3c
00000160: 2fb3 993c fe3e 443c 8a0f 9fb9 9dc0 093d
00000170: 174e 193d fa78 323c ee3e c63c 3315 9e3c
00000180: 4d3f 053d 86f3 2dbc da0a 553c ecf3 aa3c
00000190: 3eab 01bc 2879 753c 6393 7e3c b5dc 8ebc
000001a0: b5a0 5fbb 1fa8 3b3c a55d 683c 27fa 883c
000001b0: 7f96 82bb 7275 cc3c 6080 edbb 4a19 ca3c
000001c0: aeac fb3c cff1 253b 4f11 5a3c b4e7 98bc
000001d0: b6a3 88bb e5e6 1cbc 1ea3 bc3c 5720 46bc
000001e0: 9c89 713c a233 d8bb 7875 d5bb 46a5 e63c
000001f0: 1de7 efbb ab3e ff3b 8cad 9e3c fdcf efbb
00000200: c6e9 a3bb 30cc 213c 1586 ccbc ef92 59bc
00000210: c771 0abb 9c3a 463c 41b7 f93c bb56 ef3b
00000220: 8cd4 a83c b161 343c 2a1e 53bb e780 c33c
00000230: 6bfa ba3a 789b ec3b 1d23 403c 959f a83a
00000240: 476c b2bc a203 96bc 489d ae3c f1e6 f4bc
00000250: cb1e 2bbb 889a 65bc bcae 8cbb e6d8 8dbc
00000260: 9244 ca3c b4a0 1b3c b068 b73c 2847 d53c
00000270: 4605 cc3c 5696 693c e675 f33a fba4 8e3c
00000280: bd83 efbb b178 11bc 937e 83bb eadc da3b
00000290: 0b2d 813c 10dc 0abc 8d5d ccbb 35ce dc3b
000002a0: 7e9d a43b 0740 4cbc 51b9 acba 7343 e33c
000002b0: 9256 98bc 0989 9dba 9e88 743c 4f2c 323c
000002c0: afa6 96bc a8df aabb e96b 5f3b 9384 59bc
000002d0: 21be 623c dba1 24bc d4b9 ed3c 5a6f b13c
000002e0: 1844 753c 91b5 483b ddd8 58bb 2f70 47bc
000002f0: 31fa 1bbc be99 a93c 9c63 d13c 8fe6 113c
00000300: d835 4b3c 674d 1c3c bfb8 66bc ca27 eebb
00000310: 6810 633c 07e8 15bc 4a39 263b cf90 c43b
00000320: 2ed0 173d f7bb f63c 57c4 783c 97e9 ae3c
00000330: b0ff 6ebb 6ee2 b038 8c09 b73c 8c13 b33c
00000340: 06f0 193c 9279 4a3b 1a4f 96bb 8176 7c3c
00000350: b24a e83c 0f3d e73c 61c6 ac3c 722e a33c
00000360: 63c5 3c3c ea45 183c 124b 323c 5ec1 74bc
00000370: 2441 18bc ede9 b23c 2b12 903b e01a f53c
00000380: 8036 b9bb a3d8 08bc b939 8a3c 0d08 a7ba
00000390: 1ba1 8a3b bd16 92bc d511 c6bb d38b b13b
000003a0: 0f58 0e3c 3ae2 55bc a28e 46bc de81 89bc
000003b0: edac eebc 1a4a eebc b46c a3bb 3e19 003c
000003c0: aa3a 7d3b a28b 57bc e838 81bc ffd8 2fbc
000003d0: 05a0 813c ee5d 93bc a45a 0abd a558 4e3c
000003e0: d9e0 4d3a c322 5e3c 98e9 a03b 5f9e d93b
000003f0: 179b a53c f50d de3c 1554 6cbc 44a8 8bbb

layer_3.bias f4 [3]
0.021147657 0.018351128 0.012020012
00000000: da3d ad3c 1b55 963c 96ef 443c
