checkpoints/epoch3.pth (torch, 966014 bytes, 6 tensors)

layer_1.weight f4 [128, 3, 9, 9]
000000 56 cc 2b bc fa 3d 07 3d 5d 45 aa 3d 31 c3 44 3c
       -0.010485729 0.03301809 0.08314011 0.012009428
000010 1a 7b 5b bd 09 79 a0 3b 6d fb 2b 3d 86 34 40 3d
       -0.053584196 0.004897241 0.041987825 0.04692509
000020 ef 65 68 bc bf 7f 81 bb 2d 9e 90 3c 2f 4b ac bd
       -0.014184459 -0.003951996 0.01765355 -0.08412778
000030 27 f7 0d bc e9 14 83 3c 1d 83 aa bd 5f 1c b1 bd
       -0.008664883 0.016001182 -0.08325789 -0.086479895
000040 50 10 eb bb ba 0b a6 bc ee e5 62 bd dd 9d d0 3c
       -0.0071735755 -0.020269264 -0.05539506 0.0254659
000050 5e 4f f4 bc 4f 3f 84 bd 36 cb 66 3d f9 31 45 3c
       -0.029823001 -0.06457388 0.05634614 0.01203584
000060 af 35 b4 3a a1 11 a9 bb c2 dd e6 bc 53 b8 4e 3c
       0.0013748909 -0.005159572 -0.028181914 0.0126171885
000070 20 ca 02 bd d4 cc de bd 75 d7 53 bc 2b 26 ba 3d
       -0.031931043 -0.108789116 -0.012929787 0.09089311
000080 c8 73 41 3d 8e d2 66 3b d2 55 87 bd 70 c3 0e bd
       0.04722956 0.0035220715 -0.06608166 -0.034854352
000090 9b d2 a9 3d 7a 7b 82 bd 23 cb 02 be 40 95 c1 3d
       0.08292123 -0.063712075 -0.12772803 0.09452295
0000a0 f6 11 ff 3d e7 48 fd bc 5d d6 3e 3d bd e0 48 bd
       0.12454598 -0.030918552 0.04659115 -0.049042452
0000b0 cc 98 bb bb b2 4f 4a 3d 0e 79 eb bc b0 8a 2e be
       -0.005725002 0.04939241 -0.028744247 -0.17045093
0000c0 b0 26 4e 3d 36 ad 1c 3d 6f 0c 3c bd 28 2b 44 3d
       0.050329864 0.038251124 -0.045910295 0.04789272
0000d0 61 25 94 bc fc 43 36 bd 76 4b fb 3c b6 39 95 bb
       -0.01808423 -0.04449843 0.030675631 -0.004553999
0000e0 17 30 fb bd b5 c5 4d bc e5 43 de bc 07 3f 9d bd
       -0.12265032 -0.012559344 -0.027131984 -0.07678037
0000f0 73 0b 41 bd de e0 ff bb 5c ed 84 bc 11 23 c2 bc
       -0.04713006 -0.0078087887 -0.016226463 -0.023698362
000100 64 3e 44 3d c7 06 ab 3d 1c a9 17 bd df e3 df 3c
       0.047911063 0.08350902 -0.03702651 0.027330337
000110 54 d2 59 bd fe 7a 72 bd ee 93 8c 3d 38 2e ba 3b
       -0.0531791 -0.059199326 0.06864153 0.0056817792
000120 fe 68 fc bc c2 86 d8 bc 2b 02 47 3d 2b ff 5a 3d
       -0.030811783 -0.026431445 0.048586052 0.053466003
000130 86 da 12 3c 00 ad 11 ba 73 68 98 3d c5 23 27 bd
       0.008963233 -0.000555709 0.07441797 -0.040805597
000140 4c 51 09 bd dc 0e 89 bd b0 c0 a3 3c 83 e0 a3 3d
       -0.033524796 -0.06692287 0.019989341 0.080018066
000150 a7 06 a3 bc 19 98 40 bd 6a 67 78 bd fb c3 0e 3c
       -0.019900633 -0.04702005 -0.0606455 0.008713718
000160 09 87 b5 3d 61 79 19 3d d1 3b d8 3b 1b c0 83 3d
       0.088636465 0.03746927 0.0065989275 0.064331256
000170 b8 57 93 bd c6 15 0a bd 2d f5 eb bc 57 e7 8e bd
       -0.071944654 -0.03371217 -0.028803432 -0.06977718
000180 f5 9a 8b bd c2 e3 c0 bd ed aa 94 bc 12 5e 27 bc
       -0.06816665 -0.09418441 -0.01814791 -0.010215299
000190 d4 73 93 3d e7 8d e5 bd 04 c7 cd 3c ed d5 c0 bb
       0.07199827 -0.11208706 0.025119312 -0.005884877
0001a0 50 93 9e 3d b6 b1 39 bd d4 78 a1 39 cd 9d 74 bd
       0.077429414 -0.045335494 0.00030798337 -0.059720803
0001b0 62 a8 90 3b 9a 02 83 3c 85 df ac bd d9 ac 1d 3d
       0.004414604 0.015992451 -0.084410705 0.03849492
0001c0 a7 1c dd bc ef 52 2a bd 86 18 b6 3c 9a 26 85 ba
       -0.026991202 -0.041582998 0.02222849 -0.0010158599
0001d0 bb 6b 88 3c b7 f6 b0 3d b4 08 bc bc b0 91 ca bd
       0.016652932 0.08640807 -0.022953369 -0.09891069
0001e0 ba 86 d2 3d bd c9 0c 3d 4a 92 33 bd cd b0 10 bc
       0.10279603 0.03437208 -0.043840684 -0.008831215
0001f0 88 08 42 3d 8d e3 5f 3c e7 18 08 3d 08 1b ba bd
       0.047371417 0.013665092 0.033226874 -0.09087187
000200 98 5c fe bd 29 65 8d 3d f1 a9 3c bd 70 52 8a 3d
       -0.124200046 0.069040604 -0.046060506 0.06754005
000210 9a b8 15 bc fe cd b9 3c 1e 79 4e bd 6d 2d c7 3c
       -0.009138251 0.022681233 -0.050408475 0.024313653
000220 42 ac 54 3d 5e b4 48 bd 11 28 f1 bd 7e 74 b8 bd
       0.05192209 -0.049000137 -0.1177522 -0.09006594
000230 ff a6 9d bd c0 a7 dc 3a bc 6d 0f bd 6f 05 bf 3a
       -0.076978676 0.0016834661 -0.03501676 0.0014573763
000240 88 48 38 3c 5d f8 0e 3d ba 01 9a 3d 29 aa 64 3c
       0.011247762 0.034904826 0.075198606 0.013956585
000250 84 09 3f 3d 1b 51 30 bd 55 fc 4c 3d 48 f2 0b 3d
       0.046639934 -0.0430461 0.05004533 0.034166604
000260 76 36 ed 3c 5e 42 8c bc 00 46 5e bd 82 f2 5c 3d
       0.028956633 -0.01712149 -0.054265976 0.05394221
000270 45 d6 29 bd 2f fb a3 bd 0d 8b 34 3c 68 db ce bc
       -0.04146411 -0.08006894 0.01101948 -0.025251105
000280 76 a1 38 bd 91 d4 6c bc 49 ed 52 bc 8a 66 b7 bb
       -0.045075856 -0.014454977 -0.012873956 -0.0055969404
000290 e5 29 bd 3d cc 08 9e bb 8f 8d f4 3c 78 c1 d8 3b
       0.092365064 -0.004822826 0.029852657 0.00661486
0002a0 d8 35 ed 3c 28 3e d1 3d 9e de e5 3c e4 3e 7e bd
       0.028956339 0.102169335 0.028060254 -0.062071696
0002b0 a0 63 01 bb 7b 99 3c bd 5b ed 40 bd f5 eb 77 bd
       -0.001974322 -0.046044808 -0.04710136 -0.06052776
0002c0 2a 64 72 bc 03 22 0c be de 4c 15 bd 6c 60 35 bd
       -0.014794389 -0.1368485 -0.03645026 -0.04428141
0002d0 e4 b2 25 bc 8f c4 a0 3c 30 7a fa bd c2 04 f2 bc
       -0.010113452 0.019624976 -0.12230337 -0.029543284
0002e0 c4 08 5a 3c 7e 37 ac bb 32 86 48 bc d4 6d 98 bd
       0.013307754 -0.0052556386 -0.012239026 -0.07442823
0002f0 83 eb 54 3c 7f 7c 9c 3d da 10 8a 3d 42 7d db bd
       0.0129956035 0.07640933 0.067414954 -0.107172504
000300 5b f1 25 3d 4b e5 60 3c cd 91 4d 3d bd 67 cb bc
       0.040513378 0.013726543 0.050187875 -0.02482974
000310 20 05 8c bb 97 6d 3d bd 50 06 e6 3c f9 da f3 3b
       -0.004273072 -0.04624709 0.028079182 0.007441875
000320 b5 be 2b bd a9 d1 50 3d 13 74 7b 3d b5 87 15 bd
       -0.04192992 0.050981198 0.061389994 -0.036506373
000330 c9 7f fd bc 99 0f 34 3d 41 57 51 3d fc 86 88 3d
       -0.030944722 0.043960188 0.051108602 0.06666371
000340 f5 bf d9 bd 26 0d 36 be 25 2d a1 3d a3 f3 15 bd
       -0.10632316 -0.17778453 0.07869939 -0.036609303
000350 c4 94 1e 3d 61 78 c4 bb ea eb 3e bd 8d 2f 35 bd
       0.038716093 -0.0059957956 -0.046611704 -0.0442348
000360 17 29 19 3d 2e 87 63 bd 8f bb 9f bc 9d b7 ee bd
       0.037392702 -0.05554884 -0.019498615 -0.11656115
000370 3a 38 72 bb 71 ca 08 be 0f ff b2 3c 79 15 57 3c
       -0.0036959783 -0.13358475 0.021850137 0.013127678
000380 95 a8 ad bd c7 a1 ab bd af 0b 8a 3d 45 b2 e3 3d
       -0.0847942 -0.08380466 0.0674051 0.111179866
000390 b2 c5 0c 3d 1f ab 84 3c 55 8d 60 bd e1 e4 dc bc
       0.034368224 0.016194878 -0.054822285 -0.026964607
0003a0 c3 38 c4 3c 55 ac 20 3c ba 16 fe bc d3 88 92 bd
       0.023952847 0.009806712 -0.031016696 -0.071550034
0003b0 b4 c9 9b 3d 4f 6f a0 3c 2a 65 4e bd 67 de 28 3c
       0.07606831 0.019584326 -0.050389446 0.010306931
0003c0 6f 94 c3 bc 95 0c c2 3a d0 18 60 3d 0c 6b 02 3d
       -0.02387449 0.0014804775 0.054711163 0.03184037
0003d0 ad ef 37 3d 60 c0 58 3c 27 63 51 bc 6c 44 55 3b
       0.044906307 0.0132294595 -0.012779987 0.0032542003
0003e0 a8 8d c9 bc aa b5 0b bb 54 08 b7 3c b1 82 39 bd
       -0.02460368 -0.0021317997 0.022342838 -0.045290653
0003f0 53 61 00 bd 44 d1 e7 bc 83 1a d6 bd 73 23 17 3d
       -0.031342816 -0.028298028 -0.104542755 0.03689904

layer_1.bias f4 [128]
000000 62 8f 24 3d cb 41 fc bc 2d ab 4a ba 4d 37 cb bc
       0.040175803 -0.030793091 -0.00077311957 -0.024806643
000010 13 a8 8e 3b ec bb 90 3a c3 ba 0d bd 2f 52 f4 b8
       0.004353532 0.0011042333 -0.034601938 -0.000116501345
000020 80 9c 96 3c 05 91 0f 3c 0b b6 3f bd 62 41 50 3d
       0.018385172 0.008762603 -0.04680447 0.050843604
000030 29 06 2e bd 0f 35 a0 bd 00 24 56 bc 13 09 84 bc
       -0.042486344 -0.0782262 -0.0130701065 -0.016117608
000040 b0 ed 11 3c 9b d6 33 3c 32 28 8b 3d 2f b7 ba bb
       0.008906767 0.010976459 0.06794776 -0.0056981067
000050 74 70 26 bd 29 31 59 3d 5f 51 4c bc 7f 69 97 3d
       -0.040634587 0.0530254 -0.012470572 0.07393169
000060 6e 9a 13 bc 67 1a db bc d4 e4 96 3c 73 30 e1 bb
       -0.009008987 -0.026745988 0.01841966 -0.0068722307
000070 7a d9 83 bd a7 9a 3a be 4d 48 97 bd 3c 04 0d 3c
       -0.06437965 -0.18223058 -0.07386837 0.008606967
000080 42 ae a7 3c 16 a5 ef bc ab e5 a2 bc a5 1c 49 bd
       0.020468835 -0.029253524 -0.019884905 -0.049099583
000090 13 9f 26 3c 0a d6 dd bc 7a 21 92 bd 02 26 ce 3c
       0.010169762 -0.0270796 -0.071352914 0.025164608
0000a0 4f be 29 3c bf ae e8 bd d5 69 1d bd 9b 45 80 bd
       0.0103603145 -0.11361455 -0.038431007 -0.06263276
0000b0 27 70 8e bd df 73 91 3c ce 1f 88 bd ab 23 b5 bc
       -0.06954985 0.017755447 -0.06646691 -0.022111734
0000c0 0f b8 5d 3e a3 69 33 bd a2 f2 e6 ba ea 8d 9c bc
       0.21652244 -0.043801915 -0.0017619918 -0.019110639
0000d0 c2 6e 63 3d 03 79 a5 3b 62 d0 b5 3d 28 fa 83 3d
       0.05552555 0.005049826 0.088776365 0.06444198
0000e0 47 e4 f9 bc 73 36 34 3d 69 a1 15 bd 8e f1 ad bb
       -0.030504359 0.04399724 -0.036530886 -0.0053083366
0000f0 8a 3d c2 ba 3e e6 3c bd 77 a0 62 3b 72 4e d0 bb
       -0.0014819365 -0.046118014 0.0034580508 -0.0063570077
000100 8f ad 61 bd 1d 2c 7b bd a1 dc 40 bd 65 3c ef bb
       -0.05509716 -0.061321367 -0.047085408 -0.0073009008
000110 0c 46 fd 3c cd aa ce 3c 77 35 b2 3b e8 ab 36 3c
       0.03091719 0.025227929 0.0054385024 0.011149384
000120 32 07 4a bd 3d b7 1a bc 16 15 ff bc cc 59 91 bc
       -0.04932327 -0.0094431015 -0.031137984 -0.017743014
000130 7c 43 06 bd ae 3f 20 3d 0e d5 da bc 43 9a a6 bc
       -0.032779202 0.03912323 -0.02671292 -0.02033723
000140 76 cc 5e bd 75 ba a3 bd c4 80 91 bd 4f 66 f3 3c
       -0.054394208 -0.07994548 -0.07104638 0.02971187
000150 a9 76 b0 3d ef 1d 8f 3d 82 e6 61 bc 40 20 eb 3b
       0.08616383 0.06988131 -0.0137878675 0.0071754754
000160 49 dc cc bd 9c 2a 9a bc 63 13 8d ba 31 1d 76 bd
       -0.100029536 -0.018819146 -0.0010763224 -0.060086433
000170 32 a5 49 bc 04 33 3f bc d6 6b 87 3c c4 da 6c bd
       -0.012307452 -0.011669878 0.016530912 -0.05782582
000180 0f e6 16 bd 22 86 bc bb f4 7d 43 bd 01 cb f2 3b
       -0.036840495 -0.0057532946 -0.04772754 0.007409454
000190 d6 2e a2 3d d1 a5 5b 3d ed fa 12 ba 7a 64 57 bd
       0.079190895 0.05362493 -0.0005606849 -0.052586056
0001a0 fa 95 4f bd b3 bd f3 3c 0b 23 0e bc 32 67 b9 bd
       -0.05068014 0.029753542 -0.008675347 -0.09052886
0001b0 ff 94 1e bd ed 3e fd 3b 2b a6 9c bb fe 36 25 bc
       -0.038716312 0.0077284486 -0.004780551 -0.010083912
0001c0 e0 33 0a bd 31 1e 05 bd 1c 67 9a 3d 87 e8 65 bc
       -0.033740878 -0.032499496 0.07539198 -0.01403249
0001d0 01 91 0b 3d 14 02 81 bd 8f e2 9a bc 5f 35 c2 3d
       0.034073833 -0.062992245 -0.01890686 0.09482836
0001e0 2e 21 83 bd 39 f0 4d bd d2 9a 23 3c 76 7d 79 3c
       -0.06402813 -0.050277922 0.0099856425 0.015227666
0001f0 a6 1c 08 3d 34 90 75 bc e0 e9 88 3c ea 1b 1c bb
       0.033230446 -0.014987994 0.016713083 -0.002382035

layer_2.weight f4 [64, 128, 5, 5]
000000 5c 27 b0 3b 58 7e 80 bb ff 82 a2 bc 93 87 ad bc
       0.0053757858 -0.0039213113 -0.019837854 -0.02118281
000010 dc 95 a3 39 4d 9e ac bc bb d6 80 bb 22 70 59 bc
       0.00031201437 -0.021071577 -0.003931848 -0.013271363
000020 71 bb 2a bb 64 fb f0 bb fb d9 7d 3b ea e5 a0 bc
       -0.0026051665 -0.007354187 0.0038734663 -0.019640882
000030 ac 9f 90 bc 6d 1b 39 bb bb 08 bf 3b 90 0e 88 bc
       -0.017654262 -0.0028245107 0.005829898 -0.016608506
000040 a7 91 4f 3b bd a5 24 3c 95 17 a7 3b f5 38 37 3c
       0.003167251 0.010049281 0.0050992467 0.011183013
000050 1d 1b 4f 3b 79 32 d9 3a 35 7b 63 bc f4 e8 a5 3b
       0.0031601854 0.0016570828 -0.013884355 0.0050631706
000060 59 70 c1 bc 4e 35 95 bc 9d 7f ac bb b1 c8 72 bb
       -0.023613142 -0.018213894 -0.005264236 -0.003704589
000070 89 8d 53 bc 15 47 c7 3b 31 93 98 3a 38 4a d4 bb
       -0.012912163 0.0060814717 0.0011640546 -0.006478574
000080 24 b2 07 3c 27 1f 36 bb 08 1d b6 bc c8 ea 4d 3b
       0.008282218 -0.0027789564 -0.02223064 0.0031420458
000090 8b f8 78 bb e4 62 bb bc 0d dd 1d bb 52 28 80 bb
       -0.003798994 -0.022874303 -0.0024088055 -0.0039110566
0000a0 64 44 28 bc 24 f0 a7 3b a4 18 78 bc 52 51 3e bc
       -0.010270212 0.0051250625 -0.0151425935 -0.011616068
0000b0 e4 23 a0 bb 14 5c 96 bc 91 8b b9 bc c5 42 56 bc
       -0.004887091 -0.018354453 -0.022649558 -0.0130774425
0000c0 c1 9f 6b bc 0b 64 87 bb b8 37 8c bc 62 18 d2 bb
       -0.01438135 -0.004131799 -0.017116413 -0.006411598
0000d0 55 0d 3d bc a6 1f 28 bb e3 70 83 3b 5f 6c 9d bc
       -0.011538823 -0.002565363 0.00401126 -0.019216714
0000e0 99 01 e9 ba 7c 1c 27 bc fa 7d 87 bc b9 32 eb bb
       -0.0017776965 -0.010199662 -0.016539562 -0.0071776775
0000f0 46 43 31 3b b3 e8 38 bc ef d7 a1 bc 42 18 8b bc
       0.0027048155 -0.011285949 -0.019756285 -0.01697934
000100 3d 33 25 3c 2e 42 82 bc fe 64 82 bc be b4 82 bc
       0.010083017 -0.015900698 -0.015917297 -0.015955325
000110 9e a6 a7 3a 7d 08 5e 3b 81 66 4b bc 0a 93 2e 3c
       0.0012790745 0.003387957 -0.012414576 0.010655174
000120 4b 76 a0 bc 8a 26 ad 3b ef 88 54 bc 9f 25 ed 3b
       -0.019587656 0.005284135 -0.012972101 0.007237151
000130 8b 19 db 3b d9 a8 94 3b 53 c5 bb bc 42 9a 5d bc
       0.0066863946 0.00453673 -0.02292124 -0.013525547
000140 67 8f 9d 39 e9 f8 00 3c 78 3b 8e 3b eb b0 a7 bb
       0.00030052217 0.007871845 0.0043405853 -0.005117526
000150 ad 29 05 bc ec 18 a6 bb 8e bf 3c bc 28 94 04 3c
       -0.008127612 -0.005068889 -0.01152028 0.008091964
000160 d1 4d bd bc 72 aa 83 bc 20 86 82 bc 3a 7e 1c 3c
       -0.023108395 -0.016072486 -0.015933096 0.009551579
000170 40 0e 22 bc 15 bd 42 bc b2 8e c3 38 28 41 19 3c
       -0.009891093 -0.011885901 9.324904e-05 0.009353913
000180 22 15 b7 bb 9d 53 dd bb 81 d4 28 bc 34 95 92 3b
       -0.005587236 -0.0067543522 -0.010304571 0.004473353
000190 90 ae 63 bc ca c0 b1 bc af f5 7a bc d0 fc 39 3c
       -0.013896599 -0.021698374 -0.015317365 0.011351779
0001a0 75 00 44 bc cc 3a bf bc d3 89 98 bb 95 0f 1f 3c
       -0.011963 -0.023343466 -0.004655102 0.009708305
0001b0 06 76 19 3c 1d d1 d0 ba e0 11 b8 3b 4d 83 4b bc
       0.009366518 -0.0015931461 0.0056173652 -0.012421441
0001c0 7c 13 b3 bc 4f 70 66 bc 17 d9 2e 3c bf 27 05 3c
       -0.021859877 -0.014064862 0.010671875 0.008127152
0001d0 da 9d df bb 57 98 4f bc 21 02 12 bc 5d 7f c7 ba
       -0.0068242373 -0.012670598 -0.00891164 -0.0015220452
0001e0 9c 74 4c 3b 52 3f 8d bc bd 19 66 3b 1e 06 fd 3b
       0.0031197434 -0.017242108 0.0035110556 0.0077216765
0001f0 1c f3 eb 3b 99 a1 e5 bb 97 a0 b8 bc ac 02 3f bc
       0.0072006118 -0.0070077893 -0.022537513 -0.011658352
000200 db 6d b2 bc 6c f5 03 3b 08 3d a8 bc e3 d7 c5 3a
       -0.021780899 0.0020135297 -0.020536914 0.0015094246
000210 2a 0b 3c 3c 69 84 b2 3a c5 aa ad 3b 97 cd 9f bc
       0.011477271 0.0013619784 0.0052998983 -0.019507213
000220 19 8f 33 3c 64 b7 a5 bc 38 2e ea bb c4 19 48 bb
       0.01095941 -0.020229049 -0.007146623 -0.0030532936
000230 d9 94 90 bc 01 ae fe ba 42 84 aa bc 4e c4 c5 3b
       -0.017649101 -0.0019430519 -0.020815019 0.0060353642
000240 65 0e 25 3c c5 a8 58 3b a8 70 16 bc 6a bd 35 3c
       0.010074233 0.003305958 -0.009182133 0.011092523
000250 24 2f 4d bb be 0a 8d bc a9 6c 3d bc 78 8f 8b bc
       -0.0031308616 -0.017217036 -0.011561551 -0.017036185
000260 3c c9 9e bc f9 c0 b4 bc 1d 0d 21 3c ca dd 6d bc
       -0.019383065 -0.022064673 0.009829787 -0.014518211
000270 07 a9 2d 3c e3 04 0c bc 04 a7 18 3b 3a b2 8a bc
       0.010599381 -0.008546087 0.0023292908 -0.016930688
000280 ee 5a 9e bc ee 5b 37 3c a9 4f bd 3b 36 07 be bc
       -0.019330468 0.011191351 0.0057773185 -0.023196798
000290 e6 37 f9 3b 21 12 a7 3a 9f 61 80 bc 12 b3 60 bc
       0.0076055406 0.0012746492 -0.01567155 -0.013714569
0002a0 8a d0 82 bc 53 7b ae bc 10 93 45 bc d2 27 a3 bc
       -0.01596858 -0.02129904 -0.012058988 -0.019916449
0002b0 62 2b af bc b5 c5 a6 bc a7 a6 16 bc 66 5c a4 bc
       -0.021382991 -0.020357946 -0.009195006 -0.02006359
0002c0 eb 7a a7 3b 3b 74 5b ba 68 53 6f bb ea 31 06 bc
       0.0051110885 -0.00083715067 -0.003651822 -0.008190611
0002d0 db ac 47 3b a9 ea c3 3b a6 e8 b9 3b 5e a0 eb 3b
       0.003046802 0.0059789014 0.005673486 0.007190748
0002e0 9e f2 90 bc ea 21 2a 3c 2c 90 7d bc 3f be 9e bb
       -0.017693814 0.010384062 -0.015476268 -0.0048444564
0002f0 4d b0 76 3b 20 5e b4 3b a3 f0 c1 bc f2 84 b3 bb
       0.0037641705 0.0055043846 -0.023674315 -0.005478495
000300 d1 79 ae bb 73 bf c2 bb bf 2e 3f 3c 9e 10 57 3b
       -0.0053245802 -0.0059432327 0.01166886 0.00328163
000310 2f 46 7f bc 5c a3 32 3c 7a bd b4 bb f9 ae 79 bc
       -0.015580698 0.010903206 -0.0055157514 -0.015239471
000320 d2 d0 0d 3c 21 a9 3b 3a 6f 6e 82 ba ef 0f 13 bc
       0.008655744 0.0007158686 -0.0009951125 -0.008975967
000330 0b f5 4e bc e7 60 1f 3b 2f c8 9b bc ca a0 85 bc
       -0.012631665 0.0024319233 -0.019016353 -0.016312022
000340 ba 52 5e bc 69 ef 84 bc d9 c6 05 3c 8c b0 44 bc
       -0.013569528 -0.01622744 0.008165085 -0.012004983
000350 5d 0c b7 bc 75 06 20 bc 9c 3c 4e bc 5b a4 9d bc
       -0.022344762 -0.0097671645 -0.012587693 -0.01924341
000360 73 23 a6 bc 23 c8 b4 bc a9 65 e1 3b fe 33 16 bc
       -0.020280575 -0.022068089 0.006878574 -0.009167669
000370 95 b8 ea 3a 64 78 0f 3c dc 4a 04 3c 42 ed 7a bc
       0.0017907793 0.008756731 0.0080744885 -0.015315356
000380 2c 2e 20 bc 1c 92 08 bc 4a 87 67 bc a9 84 0d 3c
       -0.009776633 -0.008335616 -0.0141313765 0.008637586
000390 73 a5 90 bc cd 45 d0 3b 63 e8 3c bc 9d b8 36 bc
       -0.017657017 0.006355977 -0.011530015 -0.011152414
0003a0 41 da b9 3b e9 a9 4b bc 88 a5 47 bc f6 d7 bb bc
       0.00567177 -0.012430646 -0.012185462 -0.022930127
0003b0 89 15 3f 3c 3d 80 39 3c 42 23 60 ba 0c ca 2a bc
       0.011662849 0.011322078 -0.00085501757 -0.010424148
0003c0 40 49 9b bc d2 9c f8 ba ca 34 9b bc 20 77 ac bc
       -0.018955827 -0.0018967635 -0.01894607 -0.021052897
0003d0 f3 c0 6a bc 34 97 69 bc a1 6e 8a bb 2f b2 af bc
       -0.014328229 -0.014257241 -0.004224614 -0.02144727
0003e0 fd 36 24 3b 21 7a f1 3b c8 8f 2d bb df 10 ba bb
       0.002505719 0.007369295 -0.0026483405 -0.0056782807
0003f0 91 a4 8d bc c3 cb 77 bc a7 fd 9d 3b 45 3d a2 bb
       -0.017290385 -0.015124264 0.0048214975 -0.0049511516

layer_2.bias f4 [64]
000000 02 5b 33 bc 71 f2 0a 3d b4 7a 4b bc c2 96 f9 3c
       -0.010946991 0.033922616 -0.012419391 0.030467395
000010 69 4e 7a bc 00 4d 0e 3c cf 63 ea 3b 47 c0 15 bc
       -0.0152774835 0.00868535 0.0071530114 -0.009140081
000020 26 05 cb 3b f1 2a 27 3c 1b 2e 8e bc 40 e5 55 3d
       0.006195682 0.010203109 -0.01735597 0.052220583
000030 10 05 bd bc ef 6f 5a bb 5e b9 63 bc 68 f9 99 bc
       -0.023073703 -0.0033330878 -0.013899175 -0.018795684
000040 44 dd 0b bb b9 f6 a1 ba 49 1f a3 3b 4f e9 7d bc
       -0.0021341601 -0.0012356854 0.0049780947 -0.01549752
000050 ad f9 9b bb e7 ec 41 bc fb 68 48 bc 52 20 3e bc
       -0.0047599883 -0.011836267 -0.012232061 -0.011604385
000060 7f b5 09 3d 47 9b 1a 3b 5a 5f 40 bb a4 e4 a9 bc
       0.033620354 0.0023591088 -0.002935371 -0.020738907
000070 e6 21 c2 3d 59 fc b2 bc 41 31 b7 3d 6b 99 40 bc
       0.09479122 -0.021848844 0.08944941 -0.011755328
000080 24 4c ae 3c 9f 3f 3d b9 4b 77 08 bc db 5d d6 3b
       0.021276541 -0.00018048145 -0.008329223 0.00654195
000090 c7 44 05 be c4 fc 68 bc 93 6b ae bc 58 43 23 3d
       -0.13014518 -0.01422042 -0.02129153 0.039859146
0000a0 67 6a a6 bc 18 ec da 3b 5f 0f 03 3e ff 19 97 bc
       -0.020314408 0.0066809766 0.12798832 -0.018445013
0000b0 cd 67 b5 3c 4c 67 42 bc 8b c9 37 3d 4e 65 cb bd
       0.022144223 -0.011865448 0.04486994 -0.09931432
0000c0 19 c1 aa bc c1 e5 3a bc 2a 4c 32 3d a5 69 35 3d
       -0.02084403 -0.011407317 0.043529667 0.044290204
0000d0 3f a0 3c 3d 4d ea e1 3b 0e b1 a5 bc a0 a2 bc 3a
       0.04605126 0.006894386 -0.020226028 0.0014391728
0000e0 74 19 97 3c 72 cd 74 3c fa 2e 0a 3b be dd 3e bc
       0.018444754 0.01494156 0.002108513 -0.011649547
0000f0 83 6d d7 bb f5 c8 71 bc c2 27 1a bc 40 74 bd bc
       -0.006574334 -0.014757385 -0.009408893 -0.023126721

layer_3.weight f4 [3, 64, 5, 5]
000000 ed ba 4c 3c 72 c2 a9 bb ed f2 b2 3c 43 e2 07 bc
       0.012495738 -0.0051806504 0.021844352 -0.008293691
000010 85 a1 57 bb 45 68 8d bc 0f 1f 32 3c 08 8c 74 bc
       -0.003290267 -0.017261634 0.010871663 -0.014925964
000020 d5 f0 8c bc e3 c0 aa 3c 1e c5 b9 bb d5 fe 80 bc
       -0.017204681 0.020843929 -0.00566925 -0.015746513
000030 cc 90 84 bc 2f 53 d4 3c e8 d7 b3 3c a7 17 c7 3c
       -0.016182326 0.025918571 0.021953538 0.02430327
000040 be 7d 83 bc 62 8c 70 bc 99 a1 da 3c 76 f4 c0 3c
       -0.01605117 -0.014681907 0.026688384 0.023554068
000050 05 18 9c 3c 79 85 95 bc 98 88 2e 3c e1 25 01 3c
       0.019054422 -0.018252121 0.010652684 0.007882566
000060 dd ff 23 bc 96 26 9f 3c fb b6 64 3d bf 82 66 3c
       -0.010009733 0.019427579 0.055838566 0.014069258
000070 37 91 8d bd 65 0c 6c bc ca e9 ab 3b 2c 8d 66 3d
       -0.06912463 -0.014407252 0.0052463757 0.056286976
000080 7f 6c 31 3c 3c c5 04 bd ba ac 14 bc 66 f6 ec 3c
       0.01082909 -0.03241466 -0.009074384 0.028926086
000090 77 0d c6 3d ba a6 9d bb fc b9 15 bd b7 58 c9 bc
       0.09670537 -0.004811135 -0.03655432 -0.024578435
0000a0 f8 47 df bc aa 28 55 bc 1f fa e2 3d d7 b6 46 bd
       -0.027255997 -0.013010183 0.11082863 -0.048514213
0000b0 89 95 06 bd 31 7f 49 3d ef b1 c8 bc 63 c1 77 bd
       -0.03285745 0.049193565 -0.024498908 -0.060487162
0000c0 55 7b 37 bd 8c 19 36 bc f6 64 f6 3c a6 6d 82 3a
       -0.044795353 -0.011114489 0.030077439 0.0009950891
0000d0 a3 4a 05 3d 95 e7 fc 3b c4 78 82 3c fb 7d 9c 3c
       0.032541882 0.0077180364 0.015926726 0.01910304
0000e0 7f eb 13 bc 7a 21 8e 3c 8a ef 3d 3c 54 c9 f2 3c
       -0.009028315 0.017349947 0.011592755 0.029637016
0000f0 ba af 68 3c be 0d dd 3c f1 45 58 bc f3 33 59 bc
       0.014202053 0.026984092 -0.013200269 -0.013257015
000100 ed fd 2d bc b8 70 0f 3d f5 42 61 bc 0b b1 a3 3c
       -0.010619623 0.035019606 -0.013748874 0.019981882
000110 dc 35 13 3b 50 70 ba 3c b6 44 cc 3c 17 7e 13 bc
       0.0022462523 0.022758633 0.024935108 -0.00900223
000120 df da e7 bb da f4 97 bb 2f 22 50 bc 68 56 37 bd
       -0.007075652 -0.004637343 -0.0127034625 -0.044760138
000130 12 46 62 bd f4 95 09 bd e3 dc 4e bc 58 24 0e bc
       -0.055242606 -0.033590272 -0.012625906 -0.008675657
000140 fd 99 8a bd ab 68 6e bd 5b 2d 30 bd e4 ae 86 3c
       -0.06767652 -0.058205288 -0.043012004 0.016440816
000150 ca 0f 5c 3c 14 b9 bb bc 72 7f 0f bc 00 9e e4 3c
       0.013431499 -0.0229154 -0.008758413 0.027907372
000160 b5 70 2e 3d cb 3e 17 3d c2 11 0d bb a3 dc 34 3d
       0.042587955 0.03692512 -0.0021525477 0.044155728
000170 d8 71 73 3d 6c ed 08 3d 49 aa 14 3d 56 45 0d bb
       0.05943474 0.03342955 0.03629521 -0.002155622
000180 9c cc 44 3c e0 32 32 3b 97 d3 3e 3c b2 97 a5 3c
       0.012011673 0.0027190968 0.011647127 0.020213936
000190 3e ab 01 bc 28 79 75 3c 63 93 7e 3c b5 dc 8e bc
       -0.0079143625 0.014982499 0.015538069 -0.017439226
0001a0 b5 a0 5f bb 1f a8 3b 3c a5 5d 68 3c 27 fa 88 3c
       -0.0034122888 0.011453657 0.014182483 0.016720844
0001b0 7f 96 82 bb 72 75 cc 3c 60 80 ed bb 4a 19 ca 3c
       -0.0039852257 0.024958346 -0.0072479695 0.024670262
0001c0 ae ac fb 3c cf f1 25 3b 4f 11 5a 3c b4 e7 98 bc
       0.030721989 0.002532113 0.013309791 -0.018665172
0001d0 b6 a3 88 bb e5 e6 1c bc 1e a3 bc 3c 57 20 46 bc
       -0.0041699065 -0.009576534 0.023027 -0.012092671
0001e0 9c 89 71 3c a2 33 d8 bb 78 75 d5 bb 46 a5 e6 3c
       0.014742281 -0.006597952 -0.0065142475 0.02815498
0001f0 1d e7 ef bb 13 93 0f ba 0b dd 18 bb 82 4b 86 bb
       -0.007321252 -0.0005476933 -0.0023325111 -0.0040983567
000200 f4 b4 48 3c 76 22 9f 3a 85 98 06 bd 74 45 65 bc
       0.012250174 0.0012141007 -0.032860298 -0.01399361
000210 d8 d7 1b 3b 74 4e 03 3d 3e 82 29 3d 4b be b6 bc
       0.0023779776 0.03205724 0.041383974 -0.022307536
000220 72 1a 42 3c 30 25 b6 3c 26 2d 8d 3c 24 ff b6 3c
       0.011847125 0.02223453 0.017233443 0.022338457
000230 f9 e9 79 bc 43 40 75 bc 42 a5 99 3c a4 69 48 3c
       -0.015253537 -0.0149689345 0.018755559 0.012232218
000240 03 a9 70 bc 5f 6f 40 bc 93 f2 a2 3b 9e 20 d5 bc
       -0.014688733 -0.011745303 0.0049727648 -0.02601653
000250 d8 66 31 bc 4b ad 9f bc bc ae 8c bb e6 d8 8d bc
       -0.0108277425 -0.019491812 -0.004293291 -0.01731534
000260 92 44 ca 3c b4 a0 1b 3c b0 68 b7 3c 28 47 d5 3c
       0.0246909 0.009498764 0.022388786 0.026034907
000270 46 05 cc 3c 56 96 69 3c e6 75 f3 3a fb a4 8e 3c
       0.024904858 0.014257034 0.0018574565 0.017412653
000280 bd 83 ef bb b1 78 11 bc 93 7e 83 bb ea dc da 3b
       -0.0073094056 -0.008878873 -0.0040128916 0.006679167
000290 0b 2d 81 3c 10 dc 0a bc 8d 5d cc bb 35 ce dc 3b
       0.015768548 -0.008475319 -0.006236738 0.006738449
0002a0 7e 9d a4 3b 07 40 4c bc 51 b9 ac ba 73 43 e3 3c
       0.0050236573 -0.012466437 -0.0013177787 0.027742123
0002b0 92 56 98 bc 09 89 9d ba 9e 88 74 3c 4f 2c 32 3c
       -0.018595967 -0.0012018989 0.01492515 0.010874822
0002c0 af a6 96 bc a8 df aa bb e9 6b 5f 3b 93 84 59 bc
       -0.018390028 -0.00521465 0.003409142 -0.013276237
0002d0 21 be 62 3c db a1 24 bc d4 b9 ed 3c 5a 6f b1 3c
       0.013839276 -0.010048355 0.029019274 0.021659542
0002e0 18 44 75 3c 91 b5 48 3b dd d8 58 bb 2f 70 47 bc
       0.014969848 0.00306258 -0.0033088245 -0.012172743
0002f0 31 fa 1b bc be 99 a9 3c 9c 63 d1 3c 8f e6 11 3c
       -0.0095200995 0.020703193 0.025560193 0.008905067
000300 d8 35 4b 3c 67 4d 1c 3c bf b8 66 bc ca 27 ee bb
       0.012402974 0.0095399385 -0.014082133 -0.007267927
000310 68 10 63 3c 07 e8 15 bc 4a 39 26 3b cf 90 c4 3b
       0.013858892 -0.009149558 0.0025363737 0.005998708
000320 a5 e6 29 3d 0f 07 07 3d 81 e3 8d 3c 68 ad d1 3c
       0.041479725 0.032965716 0.017320396 0.025595382
000330 2b 78 25 3b 30 95 b1 3b ec 1c db 3c c6 d5 d4 3c
       0.0025248628 0.005419396 0.02674719 0.025980841
000340 84 42 68 3c cd 6d 11 3c 21 10 d1 b8 1a 6b 9f 3c
       0.014176015 0.008876276 -9.968901e-05 0.01946025
000350 55 bc 01 3d 44 e2 04 3d a2 06 cf 3c 08 a1 be 3c
       0.031673748 0.032442346 0.025271717 0.023270145
000360 10 68 76 3c d7 ba 5b 3c f9 e3 84 3c 1c 62 33 bc
       0.015039459 0.013411245 0.016221987 -0.010948684
000370 a7 e5 03 bc c4 d4 c0 3c 75 df f3 3b 12 7a 0d 3d
       -0.008050359 0.023538955 0.0074424096 0.034540243
000380 19 f2 f9 ba 1b c5 33 bc 42 5e 3b 3c bb e1 b5 bb
       -0.0019069343 -0.010972287 0.011436047 -0.005550591
000390 7d a9 2f bb d9 4d c5 bc 0a 4b b5 ba f2 44 c0 3a
       -0.0026803904 -0.024084972 -0.0013831567 0.0014668985
0003a0 6a 10 98 3a cb f0 8c bc 7a bc 29 bc 9e ec 92 bc
       0.0011601571 -0.017204663 -0.010359878 -0.017935093
0003b0 af ad 20 bd f2 b1 35 bd 3e 58 5f bc 9d 54 d5 3b
       -0.039228138 -0.044359155 -0.013631878 0.006510331
0003c0 20 23 dd 3a 15 29 bc bc b0 a2 e9 bc 59 c7 7a bc
       0.001687143 -0.022968808 -0.028519958 -0.015306317
0003d0 71 97 9c 3c e5 59 33 bc dd 10 1f bd 2b c6 0a 3c
       0.019115182 -0.0109467255 -0.03883444 0.0084700985
0003e0 1d 5d e4 3b 3b 84 cf 3c 98 e9 a0 3b 5f 9e d9 3b
       0.006969108 0.025331607 0.004910659 0.0066411938
0003f0 17 9b a5 3c f5 0d de 3c 15 54 6c bc 44 a8 8b bb
       0.020215554 0.027106265 -0.014424344 -0.004262002

layer_3.bias f4 [3]
000000 20 f6 f6 3c b2 18 84 3c c5 ee fc 3c
       0.030146658 0.016125057 0.030875573
