checkpoints/epoch4.pth (torch, 966014 bytes, 6 tensors)

layer_1.weight f4 [128, 3, 9, 9]
0	0xbcaa1119	-0.020760106
1	0x3cddb340	0.027063012
2	0x3da25a48	0.07927376
3	0x3c192ea8	0.009349503
4	0xbd654536	-0.055974208
5	0x3b7cc034	0.003856671
6	0x3d295bfa	0.04134748
7	0x3d42c2d0	0.04754907
8	0xbc820404	-0.015871055
9	0xbbe9c857	-0.007134478
10	0x3c9639bc	0.018338077
11	0xbdb72d54	-0.089441925
12	0xbc3ac60f	-0.01139976
13	0x3c564d19	0.013079905
14	0xbdb4a361	-0.088202246
15	0xbdbf2ee1	-0.09335113
16	0xbc1b56b8	-0.009481125
17	0xbc9cc0c3	-0.019134885
18	0xbd76b549	-0.06023148
19	0x3cd06b89	0.025441902
20	0xbd1eff6d	-0.03881781
21	0xbd8cea90	-0.06880677
22	0x3d5f337d	0.054492462
23	0x3c3c2eda	0.01148578
24	0xbb07d03e	-0.0020723487
25	0xbc0742e4	-0.008255694
26	0xbcde9729	-0.027171688
27	0x3c327f5b	0.010894622
28	0xbcff1f45	-0.03114284
29	0xbde882b8	-0.113530576
30	0xbc1dc9e0	-0.00963065
31	0x3dbf55d0	0.09342539
32	0x3d4c413c	0.0498669
33	0x3b8ec863	0.004357384
34	0xbd8275e7	-0.06370144
35	0xbceb1a24	-0.028698988
36	0x3da98966	0.0827816
37	0xbd86b41b	-0.06577321
38	0xbe099feb	-0.1343991
39	0x3dd27a84	0.10277274
40	0x3e0280da	0.12744465
41	0xbd18a532	-0.037266918
42	0x3d2f0468	0.04272881
43	0xbd4a3ca1	-0.049374226
44	0xbb1945ae	-0.002338748
45	0x3d456d02	0.04819966
46	0xbd07df28	-0.033171803
47	0xbe3ae573	-0.1825159
48	0x3d5f0ada	0.05445371
49	0x3d1cc6bd	0.03827547
50	0xbd4fda70	-0.050745428
51	0x3d32fb3c	0.043696627
52	0xbcbd469b	-0.023104956
53	0xbd411c47	-0.047146108
54	0x3cdeba1f	0.027188359
55	0xbbddff70	-0.0067748353
56	0xbe08d716	-0.13363299
57	0xbcb52f3f	-0.022117255
58	0xbd089a81	-0.03335047
59	0xbdad2f8d	-0.08456335
60	0xbd57f0cb	-0.052719872
61	0xbc46979d	-0.012121108
62	0xbc8efe51	-0.017455252
63	0xbcf0d406	-0.029397976
64	0x3d48a990	0.048989832
65	0x3dae86df	0.08521818
66	0xbd1d85e1	-0.038457755
67	0x3ce40d7f	0.027838467
68	0xbd53ea35	-0.05173703
69	0xbd68e05b	-0.056854587
70	0x3d91d4b7	0.0712065
71	0x3c062b18	0.008188985
72	0xbd287422	-0.041126378
73	0xbd16cc51	-0.036815945
74	0x3d26bc46	0.040706895
75	0x3d34d59a	0.04414902
76	0x3aa584ea	0.0012628112
77	0xba8e139d	-0.0010839585
78	0x3d97c3d1	0.07410396
79	0xbd378770	-0.044806898
80	0xbd18f96c	-0.037347242
81	0xbd9e7342	-0.077368274
82	0x3c62689a	0.013818884
83	0x3d9bc7e5	0.07606486
84	0xbcb74a8a	-0.02237441
85	0xbd469094	-0.048477724
86	0xbd75298e	-0.059854083
87	0x3c2236bc	0.009900745
88	0x3db95d27	0.090509705
89	0x3d124d8c	0.035718486
90	0x3b62b2f0	0.0034591518
91	0x3d858645	0.065197505
92	0xbd9df091	-0.077119
93	0xbd13782a	-0.03600327
94	0xbcfab5ff	-0.03060436
95	0xbd95845d	-0.07300637
96	0xbd96d804	-0.073654205
97	0xbdc3d5d8	-0.09562272
98	0xbc8bad40	-0.017050385
99	0xbc74578b	-0.01491345
100	0x3d94b270	0.07260597
101	0xbdf6b30f	-0.120458715
102	0x3cb1aebb	0.021689763
103	0xbbd462b2	-0.006481492
104	0x3da12160	0.07867694
105	0xbd4249f8	-0.047433823
106	0xbb0eb733	-0.0021776676
107	0xbd7127c3	-0.05887581
108	0x3b33bf19	0.0027427136
109	0x3c8eb76c	0.017421447
110	0xbdb4f3b5	-0.08835546
111	0x3d2e1b9e	0.042506807
112	0xbcc2a21d	-0.023758942
113	0xbd1aa691	-0.037756506
114	0x3cc48cd5	0.023992935
115	0x3ad9030a	0.0016556692
116	0x3cb6b246	0.022301804
117	0x3db10fe0	0.08645606
118	0xbcc7dd12	-0.024397407
119	0xbdd6f274	-0.10495463
120	0x3de4b63a	0.111675695
121	0x3d1a7726	0.037711285
122	0xbd4a528d	-0.049395133
123	0xbc428143	-0.011871639
124	0x3d418401	0.04724503
125	0x3c85b028	0.01631935
126	0x3d043fd4	0.032287434
127	0xbdc22cc9	-0.09481198
128	0xbe0b557d	-0.1360683
129	0x3d96b207	0.07358175
130	0xbd3a48de	-0.045479648
131	0x3d8332fe	0.0640621
132	0xbc465704	-0.012105707
133	0x3c914d31	0.017737003
134	0xbd5ddca5	-0.0541655
135	0x3cb02950	0.021504074
136	0x3d4f6c06	0.05064013
137	0xbd73dbb4	-0.059535697
138	0xbe0257d0	-0.1272881
139	0xbdc3d988	-0.09562975
140	0xbdaa8211	-0.083255894
141	0xbb2c5786	-0.0026297285
142	0xbd204776	-0.03913065
143	0xba1668a3	-0.0005737638
144	0x3bd59559	0.006518048
145	0x3d1955bf	0.03743529
146	0x3da0b76f	0.07847487
147	0x3c5fd5fe	0.01366186
148	0x3d46e1cb	0.048555177
149	0xbd22f4ec	-0.039784357
150	0x3d5c7c29	0.053829346
151	0x3d194089	0.03741506
152	0x3d00a64c	0.031408593
153	0xbcd9e58d	-0.026598716
154	0xbd822b5e	-0.06355928
155	0x3d4318b6	0.047630988
156	0xbd49bdb3	-0.049253177
157	0xbdb07388	-0.08615786
158	0x3c4c16db	0.012456621
159	0xbcc506e7	-0.024051143
160	0xbd4591ea	-0.048234858
161	0xbc928e87	-0.017890228
162	0xbcb62be5	-0.022237727
163	0xbc25a831	-0.010110901
164	0x3db8b578	0.090189874
165	0xbbcaf4cc	-0.006193733
166	0x3ced87e5	0.028995464
167	0x3c009e1e	0.007850198
168	0x3cf99368	0.030465797
169	0x3dd64ac5	0.1046348
170	0x3cdd10a8	0.026985481
171	0xbd83e16b	-0.064394794
172	0x39640098	0.00021743996
173	0xbd4fd834	-0.050743297
174	0xbd4b40c3	-0.04962231
175	0xbd80fdc1	-0.062984
176	0xbc9bf676	-0.01903842
177	0xbe1353f1	-0.1438749
178	0xbd1f2a0f	-0.03885847
179	0xbd319f62	-0.04336489
180	0xbc672ad0	-0.014109328
181	0x3cb0b92f	0.021572677
182	0xbe05a02a	-0.13049379
183	0xbd0948dc	-0.03351675
184	0x3c4754ac	0.012166183
185	0xbb827e62	-0.003982351
186	0xbc71132a	-0.014714042
187	0xbd9e804b	-0.07739314
188	0x3c63d927	0.013906754
189	0x3d9a56f6	0.07536118
190	0x3d8ef32b	0.06979974
191	0xbde359e9	-0.111011334
192	0x3d33c567	0.04388943
193	0x3c82b509	0.015955465
194	0x3d5dae7e	0.054121487
195	0xbcb83ad9	-0.022488998
196	0xba6b31ae	-0.00089719414
197	0xbd23548d	-0.039875556
198	0x3cebcaa1	0.028783144
199	0x3bd367e2	0.006451593
200	0xbd46442b	-0.048404854
201	0x3d7203ec	0.05908577
202	0x3d80bf6d	0.062865116
203	0xbd322a83	-0.043497574
204	0xbd0b0cf6	-0.033947907
205	0x3d35b176	0.044358693
206	0x3d5e1501	0.05421925
207	0x3d86aed8	0.065763175
208	0xbde2da58	-0.11076802
209	0xbe43aa8d	-0.19108029
210	0x3da84bd3	0.08217587
211	0xbd1b74e4	-0.037953272
212	0x3d0c2ced	0.034222532
213	0xbc12b483	-0.00895417
214	0xbd5395e4	-0.05165662
215	0xbd45bda9	-0.048276577
216	0x3d0dea77	0.03464743
217	0xbd69a573	-0.05704255
218	0xbcfc3aa1	-0.030789675
219	0xbe023829	-0.12716736
220	0xbc24cc71	-0.010058508
221	0xbe0f7716	-0.14010271
222	0x3c9359bc	0.017987125
223	0x3c1ad70a	0.009450683
224	0xbdb13d24	-0.0865424
225	0xbdb4a74f	-0.08820974
226	0x3d9000d5	0.07031409
227	0x3debe9cc	0.115192026
228	0x3d0dfc5b	0.034664493
229	0x3c9b90d1	0.018989952
230	0xbd4ebbf3	-0.05047221
231	0xbcb43222	-0.021996561
232	0x3ce7d4d2	0.028299723
233	0x3c567129	0.013088503
234	0xbd231925	-0.0398189
235	0xbda54e3b	-0.08071562
236	0x3d8f653f	0.07001733
237	0x3c42cd01	0.011889697
238	0xbd662ece	-0.05619698
239	0x3c4e5162	0.012592645
240	0xbcb3fe7b	-0.021971932
241	0xbaa514c2	-0.0012594687
242	0x3d5406f2	0.051764436
243	0x3cd86a43	0.026417857
244	0x3d3c3f99	0.04595909
245	0x3c213cdc	0.00984117
246	0xbccc4d74	-0.024939276
247	0xbc01fa0d	-0.007933152
248	0xbd051aa1	-0.0324961
249	0xbb070246	-0.002060072
250	0x3c68881c	0.014192607
251	0xbd73820e	-0.0594502
252	0xbd1f484d	-0.03888731
253	0xbd0a8a89	-0.033823524
254	0xbdf8a059	-0.12139959
255	0x3cc39b28	0.023877695

layer_1.bias f4 [128]
0	0x3d09a8f6	0.0336084
1	0xbd8337d2	-0.06407131
2	0xbc00f82c	-0.007871669
3	0xbd4a2f35	-0.049361426
4	0xbc0760d6	-0.008262834
5	0xbcc93314	-0.024560489
6	0xbd3b7f1e	-0.045775525
7	0xbbf6f9d1	-0.0075371047
8	0x3c33c234	0.010971595
9	0x3c7c0bae	0.015383644
10	0xbcd43fca	-0.025909323
11	0xbc937a8a	-0.018002767
12	0xbd2e0629	-0.042486344
13	0xbda0350f	-0.0782262
14	0x3cc63aab	0.024197897
15	0xbc86c6da	-0.016452242
16	0x3c7f9b09	0.015600928
17	0xbcbdcbe8	-0.02316852
18	0xbd161bd6	-0.03664764
19	0xbcc95627	-0.024577213
20	0xbd0b9477	-0.034077134
21	0xbca52a2c	-0.02016171
22	0xbd883ae5	-0.06651858
23	0x3dfdf890	0.12400925
24	0xbc139a6e	-0.009008987
25	0xbd8cea3b	-0.068806134
26	0x3cab76bb	0.020930639
27	0xbc580e78	-0.013187043
28	0xbd80e6f0	-0.06294048
29	0xbe54dfb2	-0.20788458
30	0xbd97484d	-0.07386837
31	0x3c5e4d90	0.013568297
32	0x3ba8720c	0.0051405486
33	0xbd3bdff9	-0.045867894
34	0xbca2e5ab	-0.019884905
35	0xbd491ca5	-0.049099583
36	0xbcd8c205	-0.026459703
37	0xbc75a96e	-0.0149940085
38	0xbd924ea5	-0.071439065
39	0x3d2ed25e	0.04268109
40	0xbd1473d7	-0.036243286
41	0xbdf498be	-0.11943196
42	0xbd1d399a	-0.03838501
43	0xbd7f6caa	-0.06235949
44	0xbdb4412d	-0.08801494
45	0xbc2f0419	-0.010682129
46	0xbd86d2fa	-0.06583209
47	0xbccc9bfc	-0.024976723
48	0x3e81154b	0.25211558
49	0xbd16230c	-0.036654517
50	0xbcdf103f	-0.027229426
51	0xbd2a81e9	-0.0416278
52	0x3d335c21	0.043789033
53	0x3c809785	0.01569725
54	0x3e0ccf33	0.13750915
55	0x3d339286	0.043840908
56	0xbcf28838	-0.02960597
57	0x3cf76074	0.03019736
58	0xbc2862da	-0.010277474
59	0xb9d6639e	-0.0004089148
60	0xba8b05ee	-0.0010606626
61	0xbd04dc99	-0.03243694
62	0xbd23a493	-0.039951872
63	0xbd1b1742	-0.037863977
64	0xbd5c90e0	-0.0538491
65	0xbdbfdf9a	-0.093688205
66	0xbd6bbb93	-0.05755193
67	0xbd6acdc4	-0.05732514
68	0x3d469c65	0.048488993
69	0x3bdf5438	0.0068154596
70	0xbd32987f	-0.043602463
71	0xbcb00db2	-0.021490905
72	0xbd67f21b	-0.056627374
73	0xbb41fada	-0.0029598982
74	0xbb964094	-0.004585335
75	0xbcba26a0	-0.022723496
76	0xbd0ea5c6	-0.034826063
77	0x3e2c3e65	0.16820677
78	0xbd304e38	-0.043043345
79	0xbd12b5a4	-0.035817757
80	0xbd8531e8	-0.065036595
81	0xbdc940a3	-0.098267816
82	0xbd84caf8	-0.06484026
83	0xbbae2c8c	-0.005315369
84	0x3df54b1b	0.11977216
85	0x3e00fb30	0.1259582
86	0xbd1a9614	-0.037740782
87	0x3c79c0d2	0.015243726
88	0xbdcfbbf8	-0.10143274
89	0xbdb8726d	-0.090062
90	0xbcb180e4	-0.021667905
91	0xbd79c59c	-0.06097947
92	0xbc4c0290	-0.012451783
93	0xbd0f6327	-0.03500667
94	0x3d0e3dd9	0.03472695
95	0xbd10134b	-0.03517465
96	0xbd151a72	-0.036402173
97	0xbc06b246	-0.008221215
98	0xbd687c0d	-0.05675893
99	0xbc436848	-0.011926718
100	0x3dd099b2	0.10185565
101	0x3d6e0895	0.058113653
102	0xbb18d494	-0.0023320066
103	0xbd57647a	-0.052586056
104	0xbd581809	-0.052757297
105	0x3bc8536c	0.0061134603
106	0xbd7b79ef	-0.06139558
107	0xbdc43435	-0.0958027
108	0xbc92f758	-0.017940208
109	0x3d042eb1	0.03227109
110	0xbbba9e16	-0.005695115
111	0xbc4a971a	-0.012365127
112	0xbbbef34d	-0.0058273436
113	0xbd0b38bc	-0.033989653
114	0x3d5150d3	0.05110247
115	0x3c1c8be4	0.009554837
116	0xbc959729	-0.018260555
117	0xbd810214	-0.062992245
118	0xbc9ae28f	-0.01890686
119	0x3d9a358e	0.07529746
120	0xbc108976	-0.008821836
121	0xbd71ec49	-0.05906323
122	0xbc081972	-0.008306848
123	0xbc7dc8df	-0.015489786
124	0xb9e58a31	-0.00043781244
125	0xbc4c10cf	-0.012455179
126	0xbd15e091	-0.036591116
127	0xbb89304e	-0.0041866666

layer_2.weight f4 [64, 128, 5, 5]
0	0x3bb0275c	0.0053757858
1	0xbb807e58	-0.0039213113
2	0xbca282ff	-0.019837854
3	0xbcad8793	-0.02118281
4	0x39a395dc	0.00031201437
5	0xbcac9e4d	-0.021071577
6	0xbb80d6bb	-0.003931848
7	0xbc597022	-0.013271363
8	0xbb2abb71	-0.0026051665
9	0xbbf0fb64	-0.007354187
10	0x3b7dd9fb	0.0038734663
11	0xbca0e5ea	-0.019640882
12	0xbc909fac	-0.017654262
13	0xbb391b6d	-0.0028245107
14	0x3bbf08bb	0.005829898
15	0xbc880e90	-0.016608506
16	0x3b4f91a7	0.003167251
17	0x3c24a5bd	0.010049281
18	0x3ba71795	0.0050992467
19	0x3c3738f5	0.011183013
20	0x3b4f1b1d	0.0031601854
21	0x3ad93279	0.0016570828
22	0xbc637b35	-0.013884355
23	0x3ba5e8f4	0.0050631706
24	0xbcc17059	-0.023613142
25	0xbc95354e	-0.018213894
26	0xbbac7f9d	-0.005264236
27	0xbb72c8b1	-0.003704589
28	0xbc538d89	-0.012912163
29	0x3bc74715	0.0060814717
30	0x3a989331	0.0011640546
31	0xbbd44a38	-0.006478574
32	0x3c07b224	0.008282218
33	0xbb361f27	-0.0027789564
34	0xbcb61d08	-0.02223064
35	0x3b4deac8	0.0031420458
36	0xbb78f88b	-0.003798994
37	0xbcbb62e4	-0.022874303
38	0xbb1ddd0d	-0.0024088055
39	0xbb802852	-0.0039110566
40	0xbc284464	-0.010270212
41	0x3ba7f024	0.0051250625
42	0xbc7818a4	-0.0151425935
43	0xbc3e5152	-0.011616068
44	0xbba023e4	-0.004887091
45	0xbc965c14	-0.018354453
46	0xbcb98b91	-0.022649558
47	0xbc5642c5	-0.0130774425
48	0xbc6b9fc1	-0.01438135
49	0xbb87640b	-0.004131799
50	0xbc8c37b8	-0.017116413
51	0xbbd21862	-0.006411598
52	0xbc3d0d55	-0.011538823
53	0xbb281fa6	-0.002565363
54	0x3b8370e3	0.00401126
55	0xbc9d6c5f	-0.019216714
56	0xbae90199	-0.0017776965
57	0xbc271c7c	-0.010199662
58	0xbc877dfa	-0.016539562
59	0xbbeb32b9	-0.0071776775
60	0x3b314346	0.0027048155
61	0xbc38e8b3	-0.011285949
62	0xbca1d7ef	-0.019756285
63	0xbc8b1842	-0.01697934
64	0x3c25333d	0.010083017
65	0xbc82422e	-0.015900698
66	0xbc8264fe	-0.015917297
67	0xbc82b4be	-0.015955325
68	0x3aa7a69e	0.0012790745
69	0x3b5e087d	0.003387957
70	0xbc4b6681	-0.012414576
71	0x3c2e930a	0.010655174
72	0xbca0764b	-0.019587656
73	0x3bad268a	0.005284135
74	0xbc5488ef	-0.012972101
75	0x3bed259f	0.007237151
76	0x3bdb198b	0.0066863946
77	0x3b94a8d9	0.00453673
78	0xbcbbc553	-0.02292124
79	0xbc5d9a42	-0.013525547
80	0x399d8f67	0.00030052217
81	0x3c00f8e9	0.007871845
82	0x3b8e3b78	0.0043405853
83	0xbba7b0eb	-0.005117526
84	0xbc0529ad	-0.008127612
85	0xbba618ec	-0.005068889
86	0xbc3cbf8e	-0.01152028
87	0x3c049428	0.008091964
88	0xbcbd4dd1	-0.023108395
89	0xbc83aa72	-0.016072486
90	0xbc828620	-0.015933096
91	0x3c1c7e3a	0.009551579
92	0xbc220e40	-0.009891093
93	0xbc42bd15	-0.011885901
94	0x38c38eb2	9.324904e-05
95	0x3c194128	0.009353913
96	0xbbb71522	-0.005587236
97	0xbbdd539d	-0.0067543522
98	0xbc28d481	-0.010304571
99	0x3b929534	0.004473353
100	0xbc63ae90	-0.013896599
101	0xbcb1c0ca	-0.021698374
102	0xbc7af5af	-0.015317365
103	0x3c39fcd0	0.011351779
104	0xbc440075	-0.011963
105	0xbcbf3acc	-0.023343466
106	0xbb9889d3	-0.004655102
107	0x3c1f0f95	0.009708305
108	0x3c197606	0.009366518
109	0xbad0d11d	-0.0015931461
110	0x3bb811e0	0.0056173652
111	0xbc4b834d	-0.012421441
112	0xbcb3137c	-0.021859877
113	0xbc66704f	-0.014064862
114	0x3c2ed917	0.010671875
115	0x3c0527bf	0.008127152
116	0xbbdf9dda	-0.0068242373
117	0xbc4f9857	-0.012670598
118	0xbc120221	-0.00891164
119	0xbac77f5d	-0.0015220452
120	0x3b4c749c	0.0031197434
121	0xbc8d3f52	-0.017242108
122	0x3b6619bd	0.0035110556
123	0x3bfd061e	0.0077216765
124	0x3bebf31c	0.0072006118
125	0xbbe5a199	-0.0070077893
126	0xbcb8a097	-0.022537513
127	0xbc3f02ac	-0.011658352
128	0xbcb26ddb	-0.021780899
129	0x3b03f56c	0.0020135297
130	0xbca83d08	-0.020536914
131	0x3ac5d7e3	0.0015094246
132	0x3c3c0b2a	0.011477271
133	0x3ab28469	0.0013619784
134	0x3badaac5	0.0052998983
135	0xbc9fcd97	-0.019507213
136	0x3c338f19	0.01095941
137	0xbca5b764	-0.020229049
138	0xbbea2e38	-0.007146623
139	0xbb4819c4	-0.0030532936
140	0xbc9094d9	-0.017649101
141	0xbafeae01	-0.0019430519
142	0xbcaa8442	-0.020815019
143	0x3bc5c44e	0.0060353642
144	0x3c250e65	0.010074233
145	0x3b58a8c5	0.003305958
146	0xbc1670a8	-0.009182133
147	0x3c35bd6a	0.011092523
148	0xbb4d2f24	-0.0031308616
149	0xbc8d0abe	-0.017217036
150	0xbc3d6ca9	-0.011561551
151	0xbc8b8f78	-0.017036185
152	0xbc9ec93c	-0.019383065
153	0xbcb4c0f9	-0.022064673
154	0x3c210d1d	0.009829787
155	0xbc6dddca	-0.014518211
156	0x3c2da907	0.010599381
157	0xbc0c04e3	-0.008546087
158	0x3b18a704	0.0023292908
159	0xbc8ab23a	-0.016930688
160	0xbc9e5aee	-0.019330468
161	0x3c375bee	0.011191351
162	0x3bbd4fa9	0.0057773185
163	0xbcbe0736	-0.023196798
164	0x3bf937e6	0.0076055406
165	0x3aa71221	0.0012746492
166	0xbc80619f	-0.01567155
167	0xbc60b312	-0.013714569
168	0xbc82d08a	-0.01596858
169	0xbcae7b53	-0.02129904
170	0xbc459310	-0.012058988
171	0xbca327d2	-0.019916449
172	0xbcaf2b62	-0.021382991
173	0xbca6c5b5	-0.020357946
174	0xbc16a6a7	-0.009195006
175	0xbca45c66	-0.02006359
176	0x3ba77aeb	0.0051110885
177	0xba5b743b	-0.00083715067
178	0xbb6f5368	-0.003651822
179	0xbc0631ea	-0.008190611
180	0x3b47acdb	0.003046802
181	0x3bc3eaa9	0.0059789014
182	0x3bb9e8a6	0.005673486
183	0x3beba05e	0.007190748
184	0xbc90f29e	-0.017693814
185	0x3c2a21ea	0.010384062
186	0xbc7d902c	-0.015476268
187	0xbb9ebe3f	-0.0048444564
188	0x3b76b04d	0.0037641705
189	0x3bb45e20	0.0055043846
190	0xbcc1f0a3	-0.023674315
191	0xbbb384f2	-0.005478495
192	0xbbae79d1	-0.0053245802
193	0xbbc2bf73	-0.0059432327
194	0x3c3f2ebf	0.01166886
195	0x3b57109e	0.00328163
196	0xbc7f462f	-0.015580698
197	0x3c32a35c	0.010903206
198	0xbbb4bd7a	-0.0055157514
199	0xbc79aef9	-0.015239471
200	0x3c0dd0d2	0.008655744
201	0x3a3ba921	0.0007158686
202	0xba826e6f	-0.0009951125
203	0xbc130fef	-0.008975967
204	0xbc4ef50b	-0.012631665
205	0x3b1f60e7	0.0024319233
206	0xbc9bc82f	-0.019016353
207	0xbc85a0ca	-0.016312022
208	0xbc5e52ba	-0.013569528
209	0xbc84ef69	-0.01622744
210	0x3c05c6d9	0.008165085
211	0xbc44b08c	-0.012004983
212	0xbcb70c5d	-0.022344762
213	0xbc200675	-0.0097671645
214	0xbc4e3c9c	-0.012587693
215	0xbc9da45b	-0.01924341
216	0xbca62373	-0.020280575
217	0xbcb4c823	-0.022068089
218	0x3be165a9	0.006878574
219	0xbc1633fe	-0.009167669
220	0x3aeab895	0.0017907793
221	0x3c0f7864	0.008756731
222	0x3c044adc	0.0080744885
223	0xbc7aed42	-0.015315356
224	0xbc202e2c	-0.009776633
225	0xbc08921c	-0.008335616
226	0xbc67874a	-0.0141313765
227	0x3c0d84a9	0.008637586
228	0xbc90a573	-0.017657017
229	0x3bd045cd	0.006355977
230	0xbc3ce863	-0.011530015
231	0xbc36b89d	-0.011152414
232	0x3bb9da41	0.00567177
233	0xbc4ba9e9	-0.012430646
234	0xbc47a588	-0.012185462
235	0xbcbbd7f6	-0.022930127
236	0x3c3f1589	0.011662849
237	0x3c39803d	0.011322078
238	0xba602342	-0.00085501757
239	0xbc2aca0c	-0.010424148
240	0xbc9b4940	-0.018955827
241	0xbaf89cd2	-0.0018967635
242	0xbc9b34ca	-0.01894607
243	0xbcac7720	-0.021052897
244	0xbc6ac0f3	-0.014328229
245	0xbc699734	-0.014257241
246	0xbb8a6ea1	-0.004224614
247	0xbcafb22f	-0.02144727
248	0x3b2436fd	0.002505719
249	0x3bf17a21	0.007369295
250	0xbb2d8fc8	-0.0026483405
251	0xbbba10df	-0.0056782807
252	0xbc8da491	-0.017290385
253	0xbc77cbc3	-0.015124264
254	0x3b9dfda7	0.0048214975
255	0xbba23d45	-0.0049511516

layer_2.bias f4 [64]
0	0xbc335b02	-0.010946991
1	0x3d0467c0	0.032325506
2	0xbc58aaf8	-0.013224356
3	0x3cb36470	0.021898478
4	0xbc7a4e69	-0.0152774835
5	0x3cfee968	0.031117156
6	0x3bea63cf	0.0071530114
7	0xbc15c047	-0.009140081
8	0x3c673b9c	0.014113333
9	0x3bc14a82	0.0058987746
10	0xbc8e2e1b	-0.01735597
11	0x3d1b57ee	0.037925653
12	0xbcbd0510	-0.023073703
13	0xbb5a6fef	-0.0033330878
14	0xbc63b95e	-0.013899175
15	0xbc99f968	-0.018795684
16	0xbb0bdd44	-0.0021341601
17	0xbac7a948	-0.0015232945
18	0x3ba31f49	0.0049780947
19	0xbc7de94f	-0.01549752
20	0xbb9bf9ad	-0.0047599883
21	0xbc41ece7	-0.011836267
22	0xbc4868fb	-0.012232061
23	0xbc3e2052	-0.011604385
24	0x3c995c86	0.018720876
25	0x3c59cf70	0.013294086
26	0xbb405f5a	-0.002935371
27	0xbca9e4a4	-0.020738907
28	0x3dd0f97b	0.102038346
29	0xbcb2fc59	-0.021848844
30	0x3dd3d14e	0.10342656
31	0xbc40996b	-0.011755328
32	0x3caff325	0.021478245
33	0xb93d3f9f	-0.00018048145
34	0xbc08774b	-0.008329223
35	0x3bd65ddb	0.00654195
36	0xbe63bf3d	-0.2224092
37	0xbc68fcc4	-0.01422042
38	0xbcae6b93	-0.02129153
39	0x3d0c1373	0.034198236
40	0xbca66a67	-0.020314408
41	0x3bdaec18	0.0066809766
42	0x3dd148c5	0.10218958
43	0xbc9719ff	-0.018445013
44	0x3ca82b50	0.020528466
45	0xbc2eda8c	-0.010672223
46	0x3d20cc5e	0.0392574
47	0xbe11fd6d	-0.1425683
48	0xbcaac119	-0.02084403
49	0xbc3ae5c1	-0.011407317
50	0x3d38b010	0.04508978
51	0x3cba82ad	0.02276739
52	0x3cda849f	0.026674567
53	0x3c242636	0.010018876
54	0xbd5f61d2	-0.054536648
55	0x3abca2a0	0.0014391728
56	0x3d12bc2b	0.035823982
57	0x3bfbe6a4	0.0076874066
58	0x3b0a2efa	0.002108513
59	0xbc3eddbe	-0.011649547
60	0xbbd76d83	-0.006574334
61	0xbc71c8f5	-0.014757385
62	0xbc1a27c2	-0.009408893
63	0xbcbd7440	-0.023126721

layer_3.weight f4 [3, 64, 5, 5]
0	0x3c4cbaed	0.012495738
1	0xbba9c272	-0.0051806504
2	0x3cb2f2ed	0.021844352
3	0xbc07e243	-0.008293691
4	0xbb57a185	-0.003290267
5	0xbc8d6845	-0.017261634
6	0x3c321f0f	0.010871663
7	0xbc748c08	-0.014925964
8	0xbc8cf0d5	-0.017204681
9	0x3caac0e3	0.020843929
10	0xbbb9c51e	-0.00566925
11	0xbc80fed5	-0.015746513
12	0xbc8490cc	-0.016182326
13	0x3cd4532f	0.025918571
14	0x3cb3d7e8	0.021953538
15	0x3cc717a7	0.02430327
16	0xbc837dbe	-0.01605117
17	0xbc708c62	-0.014681907
18	0x3cdaa199	0.026688384
19	0x3cc0f476	0.023554068
20	0x3c9c1805	0.019054422
21	0xbc958579	-0.018252121
22	0x3c2e8898	0.010652684
23	0x3c0125e1	0.007882566
24	0xbc23ffdd	-0.010009733
25	0x3ca6b789	0.020351188
26	0x3d65221b	0.05594073
27	0x3ca8a89a	0.020588208
28	0xbd92fb18	-0.071767986
29	0xbcd047dd	-0.025424892
30	0x3b9e77de	0.0048360666
31	0x3d8eee96	0.069791004
32	0x3bd3ca59	0.0064633307
33	0xbcedd6a0	-0.029033005
34	0xbb4a81fd	-0.0030900233
35	0x3d124d08	0.035717994
36	0x3ddb8b04	0.107198745
37	0xbc37df30	-0.011222646
38	0xbd2b167b	-0.041769486
39	0xbcb1d472	-0.021707747
40	0xbcd30ac7	-0.025761975
41	0xbc199e86	-0.009376174
42	0x3dfdee07	0.12398916
43	0xbd64ea08	-0.055887252
44	0xbd0b9cea	-0.03408519
45	0x3d34e7b3	0.044166278
46	0xbce08e4d	-0.027411604
47	0xbd7e8b82	-0.062144764
48	0xbd4f0731	-0.050543968
49	0xbc8661bb	-0.016404023
50	0x3cf621bc	0.030045383
51	0x3a7caa63	0.0009638427
52	0x3d0542d0	0.03253442
53	0x3bfd6f87	0.0077342424
54	0x3c825a7f	0.015912293
55	0x3c9c4413	0.019075429
56	0xbc146570	-0.009057388
57	0x3c8e1b96	0.017347138
58	0x3c3e3e99	0.011611604
59	0x3cf2b3af	0.029626695
60	0x3c684c6f	0.014178379
61	0x3cdcd9e9	0.026959376
62	0xbc583a2a	-0.013197461
63	0xbc58d7e1	-0.013235063
64	0xbc2e1fac	-0.010627668
65	0x3d0f5edf	0.035002586
66	0xbc619c2d	-0.013770145
67	0x3ca3b6be	0.0199846
68	0x3b148cfa	0.0022667036
69	0x3cba619d	0.022751624
70	0x3ccc2f77	0.024924977
71	0xbc13cb50	-0.009020641
72	0xbbe7d4c7	-0.0070749256
73	0xbb976d18	-0.0046211593
74	0xbc5020bf	-0.01270312
75	0xbd3e26f4	-0.046423867
76	0xbd8d0c26	-0.06887083
77	0xbd309484	-0.043110386
78	0xbc807eb6	-0.01568542
79	0xbc5e7ca0	-0.013579518
80	0xbda83c83	-0.08214667
81	0xbd9eba0e	-0.07750331
82	0xbd36d2ab	-0.044634502
83	0x3c7e95af	0.015538617
84	0x3c746c6a	0.014918426
85	0xbca9d4da	-0.020731378
86	0x3b25ae93	0.0025281056
87	0x3d0780a7	0.033081677
88	0x3d687fa3	0.05676235
89	0x3d3d16a6	0.046164177
90	0x39dac741	0.00041728656
91	0x3d4702a5	0.048586506
92	0x3d8e3011	0.06942762
93	0x3d4b6a84	0.049662128
94	0x3d2fe020	0.04293835
95	0xbbdbf8c6	-0.0067130057
96	0x3bdfda8d	0.006831473
97	0x3b18884f	0.0023274606
98	0x3c24348b	0.010022293
99	0x3c4d7592	0.012540238
100	0xbc01ab3e	-0.0079143625
101	0x3c757928	0.014982499
102	0x3c7e9363	0.015538069
103	0xbc8edcb5	-0.017439226
104	0xbb5fa0b5	-0.0034122888
105	0x3c3ba81f	0.011453657
106	0x3c685da5	0.014182483
107	0x3c88fa27	0.016720844
108	0xbb82967f	-0.0039852257
109	0x3ccc7572	0.024958346
110	0xbbed8060	-0.0072479695
111	0x3cca194a	0.024670262
112	0x3cfbacae	0.030721989
113	0x3b25f1cf	0.002532113
114	0x3c5a114f	0.013309791
115	0xbc98e7b4	-0.018665172
116	0xbb88a3b6	-0.0041699065
117	0xbc1ce6e5	-0.009576534
118	0x3cbca31e	0.023027
119	0xbc462057	-0.012092671
120	0x3c71899c	0.014742281
121	0xbbd833a2	-0.006597952
122	0xbbd57578	-0.0065142475
123	0x3ce6a546	0.02815498
124	0xbbefe71d	-0.007321252
125	0xbcc35255	-0.02384297
126	0xbc53ccde	-0.012927262
127	0xbc00a932	-0.007852839
128	0x3c99face	0.01879635
129	0x3d2bebb8	0.041972846
130	0xbd51ca14	-0.051218107
131	0xbc151216	-0.00909855
132	0x3c2df4df	0.010617464
133	0x3cf8b206	0.030358326
134	0x3d8346c1	0.064099796
135	0xbd3171ad	-0.0433213
136	0x3cb24148	0.021759644
137	0x3d2655ed	0.04060929
138	0x3b17e3e9	0.0023176617
139	0x3b8c657d	0.0042845593
140	0xbcbbcd07	-0.022924913
141	0xbb8793e6	-0.004137504
142	0x3d29a8cb	0.04142074
143	0x3c354b10	0.01106526
144	0xbce525d7	-0.027972145
145	0xbc87a1af	-0.016556589
146	0xbbd73dce	-0.006568647
147	0xbcb0dca3	-0.021589583
148	0xbc31d6b5	-0.010854413
149	0xbcbe3a43	-0.02322114
150	0xbb8caebc	-0.004293291
151	0xbc8dd8e6	-0.01731534
152	0x3cca4492	0.0246909
153	0x3c1ba0b4	0.009498764
154	0x3cb768b0	0.022388786
155	0x3cd54728	0.026034907
156	0x3ccc0546	0.024904858
157	0x3c699656	0.014257034
158	0x3af375e6	0.0018574565
159	0x3c8ea4fb	0.017412653
160	0xbbef83bd	-0.0073094056
161	0xbc1178b1	-0.008878873
162	0xbb837e93	-0.0040128916
163	0x3bdadcea	0.006679167
164	0x3c812d0b	0.015768548
165	0xbc0adc10	-0.008475319
166	0xbbcc5d8d	-0.006236738
167	0x3bdcce35	0.006738449
168	0x3ba49d7e	0.0050236573
169	0xbc4c4007	-0.012466437
170	0xbaacb951	-0.0013177787
171	0x3ce34373	0.027742123
172	0xbc985692	-0.018595967
173	0xba9d8909	-0.0012018989
174	0x3c74889e	0.01492515
175	0x3c322c4f	0.010874822
176	0xbc96a6af	-0.018390028
177	0xbbaadfa8	-0.00521465
178	0x3b5f6be9	0.003409142
179	0xbc598493	-0.013276237
180	0x3c62be21	0.013839276
181	0xbc24a1db	-0.010048355
182	0x3cedb9d4	0.029019274
183	0x3cb16f5a	0.021659542
184	0x3c754418	0.014969848
185	0x3b48b591	0.00306258
186	0xbb58d8dd	-0.0033088245
187	0xbc47702f	-0.012172743
188	0xbc1bfa31	-0.0095200995
189	0x3ca999be	0.020703193
190	0x3cd1639c	0.025560193
191	0x3c11e68f	0.008905067
192	0x3c4b35d8	0.012402974
193	0x3c1c4d67	0.0095399385
194	0xbc66b8bf	-0.014082133
195	0xbbee27ca	-0.007267927
196	0x3c631068	0.013858892
197	0xbc15e807	-0.009149558
198	0x3b26394a	0.0025363737
199	0x3bc490cf	0.005998708
200	0x3d262976	0.040566884
201	0x3d028dc1	0.03187347
202	0x3c8cbc5c	0.01717966
203	0x3cd5fa7c	0.026120417
204	0x3b6cfdc2	0.0036161994
205	0x3bb9c665	0.0056694024
206	0x3cd84f0d	0.026404882
207	0x3cd77892	0.02630261
208	0x3c6ea1c8	0.014564939
209	0x3c1965d1	0.009362654
210	0x39c6a653	0.00037889424
211	0x3c9f955c	0.0194804
212	0x3d03d044	0.03218104
213	0x3d08f098	0.033432573
214	0x3cd67bc7	0.026182069
215	0x3cc821c6	0.024430167
216	0x3c81d64e	0.015849259
217	0x3c771023	0.015079531
218	0x3c98a7a5	0.018634627
219	0xbc13e968	-0.009027816
220	0xbbd2841a	-0.006424439
221	0x3ccc1301	0.024911406
222	0x3c1efeef	0.009704336
223	0x3d19c009	0.037536655
224	0x399974a2	0.00029269332
225	0xbc68ccfc	-0.014209028
226	0x3c045a1d	0.008078125
227	0xbba6828f	-0.0050814818
228	0xbb111780	-0.0022139251
229	0xbcd41756	-0.025890034
230	0x3aaade16	0.0013036157
231	0x3ac57956	0.0015066068
232	0x3a843dd3	0.0010089226
233	0xbc63da66	-0.013907051
234	0xbc030824	-0.007997546
235	0xbc9410fa	-0.018074501
236	0xbd29836c	-0.0413851
237	0xbd44412a	-0.047913708
238	0xbc702bc8	-0.014658876
239	0x3ba78c72	0.005113178
240	0xbaa3fd72	-0.0012511446
241	0xbcd92a5b	-0.026509454
242	0xbcf488ed	-0.029850448
243	0xbc56c445	-0.013108318
244	0x3ca2aef2	0.019858811
245	0xbc426b66	-0.011866426
246	0xbd26d696	-0.04073199
247	0x3c0a90ad	0.008457345
248	0x3c02ec4a	0.007990906
249	0x3cb199ba	0.021679748
250	0x3ba0e998	0.004910659
251	0x3bd99e5f	0.0066411938
252	0x3ca59b17	0.020215554
253	0x3cde0df5	0.027106265
254	0xbc6c5415	-0.014424344
255	0xbb8ba844	-0.004262002

layer_3.bias f4 [3]
0	0x3d08ad72	0.033368535
1	0x3ca7df18	0.020492122
2	0x3d142d76	0.036176167
