checkpoints/epoch5.pth (torch, 966014 bytes, 6 tensors)

layer_1.weight f4 [128, 3, 9, 9]
-0.021733843 0.027335554 0.08107934 0.013752592 -0.05393048 0.006326859 0.044080626 0.04949429
-0.016328713 -0.005187189 0.021363039 -0.08757081 -0.005233011 0.017606951 -0.08398496 -0.090611815
-0.0072105005 -0.017054183 -0.057986286 0.02870635 -0.037502706 -0.061970428 0.061526965 0.018479055
0.0026126914 -0.005198927 -0.02430333 0.013111936 -0.027503936 -0.11070496 0.0002744059 0.1018856
0.05693134 0.009950412 -0.059418943 -0.024735393 0.08507056 -0.06506372 -0.1327556 0.11551949
0.13698034 -0.032124214 0.04699385 -0.04615832 -0.00032562076 0.051966786 -0.031489063 -0.17865376
0.06571364 0.04702176 -0.045030273 0.04863049 -0.020049386 -0.04535541 0.029959554 -0.0057318932
-0.13285804 -0.01720317 -0.03093224 -0.08359787 -0.05126176 -0.011219236 -0.017513625 -0.029696288
0.049707428 0.08751723 -0.033145823 0.032086305 -0.04740819 -0.052386392 0.07420787 0.009249899
-0.042982586 -0.039957292 0.03910816 0.044014573 0.0024109357 0.0024688563 0.07707111 -0.044164903
-0.038087502 -0.078773275 0.013571607 0.07735334 -0.017843258 -0.04587108 -0.05645791 0.013327093
0.09248871 0.034406938 0.0055700717 0.068150826 -0.07568386 -0.029776093 -0.025618877 -0.06780438
-0.070134945 -0.0931209 -0.015556259 -0.013162012 0.07513809 -0.12043688 0.027638158 0.00033573247
0.086184174 -0.04228874 0.00084213825 -0.05666523 0.0031871125 0.018372316 -0.08808271 0.050565045
-0.016490424 -0.031152008 0.02923437 0.0050752196 0.024639998 0.08690006 -0.02584563 -0.10601064
0.1225875 0.04608908 -0.04501918 -0.008513879 0.04910316 0.016478188 0.034926835 -0.09470736
-0.13484648 0.08345131 -0.037944216 0.069315635 -0.007561112 0.019611241 -0.054272212 0.02335942
0.05059352 -0.060380466 -0.12376747 -0.09426849 -0.082813814 -0.001712303 -0.039365366 -0.002400465
0.005336725 0.037323363 0.07997771 0.018112104 0.0521917 -0.03556671 0.058040354 0.0395978
0.031063978 -0.02927983 -0.06752289 0.04523652 -0.05006045 -0.08561291 0.015939245 -0.021425104
-0.04841815 -0.019935137 -0.022605468 -0.009655074 0.09186683 -0.0015162475 0.031756133 0.011538856
0.034175284 0.10676188 0.025489485 -0.06130201 0.0036947012 -0.049418464 -0.043407463 -0.057878826
-0.013626278 -0.14030512 -0.036351547 -0.041952625 -0.011429175 0.024610285 -0.13040778 -0.02740885
0.019473478 0.004233444 -0.00911817 -0.07409914 0.016339721 0.07598175 0.07066392 -0.11131353
0.052043896 0.023359125 0.060922597 -0.017085226 0.002618651 -0.037505943 0.02923048 0.004421776
-0.049700294 0.07045536 0.07152315 -0.0387467 -0.029652106 0.047026742 0.05467266 0.06895267
-0.11054029 -0.19036429 0.09268351 -0.029832931 0.040380765 -0.00339195 -0.049024984 -0.048022486
0.03707697 -0.056517094 -0.0316007 -0.123323604 -0.008171274 -0.13900006 0.019761525 0.009805025
-0.08809067 -0.088783994 0.07103697 0.11763287 0.039490644 0.02359765 -0.0447471 -0.016270475
0.031377703 0.013219344 -0.0418462 -0.08402256 0.068311736 0.011468754 -0.055042554 0.017286772
-0.018406078 -0.0010405977 0.049776036 0.019393869 0.04031136 0.0039260555 -0.034493282 -0.020197999
-0.03475688 -0.002420009 0.013911535 -0.060312364 -0.04577733 -0.039116308 -0.12736645 0.01217078
00000000: 2c0b b2bc d0ee df3c ed0c a63d 8d52 613c
00000010: 35e6 5cbd 8a51 cf3b e38d 343d 86ba 4a3d
00000020: cbc3 85bc 4cf9 a9bb 8a01 af3c 5358 b3bd
00000030: ae79 abbb 743c 903c 4f00 acbd b092 b9bd
00000040: 1046 ecbb 37b5 8bbc 0783 6dbd 9429 eb3c
00000050: 709c 19bd b4d4 7dbd b303 7c3d 6361 973c
00000060: b039 2b3b c35b aabb c717 c7bc 72d3 563c
00000070: ef4f e1bc 48b9 e2bd 23de 8f39 66a9 d03d
00000080: d630 693d 0e07 233c 4761 73bd e1a1 cabc
00000090: 7939 ae3d 2140 85bd 16f1 07be 7b95 ec3d
000000a0: 9344 0c3e ae94 03bd a07c 403d 8210 3dbd
000000b0: 14b8 aab9 20db 543d adfa 00bd 03f1 36be
000000c0: df94 863d e499 403d aa71 38bd c430 473d
000000d0: 9c3e a4bc 98c6 39bd bd6d f53c 9bd2 bbbb
000000e0: f00b 08be aaed 8cbc 9c65 fdbc 5c35 abbd
000000f0: daf7 51bd e3d0 37bc bc78 8fbc a145 f3bc
00000100: 049a 4b3d 3c3c b33d eac3 07bd ee6c 033d
00000110: 172f 42bd 1d93 56bd 4cfa 973d e38c 173c
00000120: 820e 30bd 42aa 23bd e12f 203d a048 343d
00000130: ca00 1e3b 89cc 213b 75d7 9d3d 42e6 34bd
00000140: a401 1cbd e253 a1bd 725b 5e3c 6e6b 9e3d
00000150: 062c 92bc 50e3 3bbd 6940 67bd e159 5a3c
00000160: b96a bd3d 4aee 0c3d 2685 b63b a992 8b3d
00000170: 2400 9bbd feec f3bc aede d1bc 06dd 8abd
00000180: e9a2 8fbd 2cb6 bebd aedf 7ebc 7ba5 57bc
00000190: 00e2 993d 9ca7 f6bd 6b69 e23c 4005 b039
000001a0: 5481 b03d f536 2dbd f1c2 5c3a cd19 68bd
000001b0: e0de 503b 8a81 963c b564 b4bd 4b1d 4f3d
000001c0: ed16 87bc 7f32 ffbc eb7c ef3c 074e a63b
000001d0: d2d9 c93c a9f8 b13d 37ba d3bc 1b1c d9bd
000001e0: 280f fb3d e7c7 3c3d 0866 38bd cc7d 0bbc
000001f0: 6520 493d 44fd 863c 710f 0f3d eff5 c1bd
00000200: 3215 0abe 85e8 aa3d 656b 1bbd 5bf5 8d3d
00000210: 34c3 f7bb c1a7 a03c 8a4c 5ebd 415c bf3c
00000220: 273b 4f3d 8251 77bd cd79 fdbd d70f c1bd
00000230: 4a9a a9bd 5b6f e0ba 943d 21bd 1f51 1dbb
00000240: b2df ae3b 62e0 183d 5bcb a33d d65f 943c
00000250: f7c6 553d 66ae 11bd b9bb 6d3d 4d31 223d
00000260: e279 fe3c 41dc efbc 7149 8abd ee49 393d
00000270: 300c 4dbd d255 afbd 0593 823c b383 afbc
00000280: 1c52 46bd 034f a3bc 1a2f b9bc 5130 1ebc
00000290: ad24 bc3d d3bc c6ba b812 023d 780d 3d3c
000002a0: 62fb 0b3d f9a5 da3d 53cf d03c d117 7bbd
000002b0: cd22 723b 046b 4abd 06cc 31bd 5912 6dbd
000002c0: c140 5fbc 25ac 0fbe 5ce5 14bd 84d6 2bbd
000002d0: 6f41 3bbc 829b c93c 9e89 05be 8688 e0bc
000002e0: d886 9f3c b4b8 8a3b 6064 15bc 4ac1 97bd
000002f0: e1da 853c 529c 9b3d 3fb8 903d 59f8 e3bd
00000300: fb2b 553d a35b bf3c f989 793d 51f6 8bbc
00000310: ac9d 2b3b d59f 19bd c274 ef3c 8ce4 903b
00000320: 8992 4bbd e64a 903d bb7a 923d dcb4 1ebd
00000330: f9e8 f2bc 1d9f 403d 70f0 5f3d 0f37 8d3d
00000340: f362 e2bd dbee 42be dad0 bd3d 3164 f4bc
00000350: 4d66 253d 7a4b 5ebb 6cce 48bd 3ab3 44bd
00000360: 05de 173d 787e 67bd bc6f 01bd 1691 fcbd
00000370: cfe0 05bc 0856 0ebe ece2 a13c 41a5 203c
00000380: e268 b4bd 62d4 b5bd d57b 913d 81e9 f03d
00000390: f1c0 213d dc4f c13c bc48 37bd a949 85bc
000003a0: e885 003d f395 583c ec66 2bbd 0514 acbd
000003b0: 06e7 8b3d 71e7 3b3c 4d74 61bd fd9c 8d3c
000003c0: 58c8 96bc aa64 88ba f5e1 4b3d e4df 9e3c
000003d0: 861d 253d 24a6 803b d448 0dbd 4676 a5bc
000003e0: 3b5d 0ebd 0499 1ebb 35ed 633c 190a 77bd
000003f0: 0281 3bbd 6c38 20bd 5a6c 02be f467 473c

layer_1.bias f4 [128]
0.018440345 -0.1046205 -0.020009609 -0.08994832 0.0023164602 -0.044927474 -0.04988343 -0.009072285
0.0011979684 -0.01169342 -0.059558503 -0.07355134 -0.042486344 -0.0782262 0.04470952 -0.016193826
0.018189281 -0.057648897 -0.059239697 -0.0485852 -0.022802163 -0.003241104 -0.06651858 0.07964703
-0.009008987 -0.030817416 -0.00261779 -0.021937499 -0.0904154 -0.22659673 -0.07386837 -0.010763775
-0.011596996 -0.0736339 -0.019884905 -0.049099583 -0.024709327 -0.009671474 -0.07117976 0.050413925
-0.041874867 -0.17560819 -0.03838299 -0.062107388 -0.061693434 -0.040752303 -0.06615205 -0.02636702
0.27466747 -0.005985039 -0.035437144 -0.032970786 0.050345816 0.016410481 0.16185746 0.031109199
-0.029261386 -0.040801484 -0.027970362 -0.002335897 -0.07291642 -0.03243694 -0.03438009 -0.03784925
-0.054377247 -0.099840365 -0.058684837 -0.10894842 0.055098534 -0.021914208 -0.059195954 -0.022020062
-0.05483691 -0.001583045 -0.0079223225 -0.017792698 -0.04397057 0.18021071 -0.032519452 -0.057371315
-0.030425362 -0.07884206 -0.048515793 -2.8300015e-05 0.13722336 0.1683491 -0.041366387 0.028211715
-0.10212107 -0.11266504 -0.08300471 -0.062303897 -0.007793817 -0.0648094 -0.042490445 -0.010740222
-0.036590695 -0.0021444175 -0.06849341 -0.017662738 0.06893464 0.059047855 -0.0027016785 -0.052586056
-0.052757297 0.007532187 -0.060178332 -0.096307226 -0.029848425 0.033935253 -0.031435814 -0.038511295
-0.041061796 -0.034016386 0.028570956 0.032367736 -0.01563494 -0.062992245 -0.01890686 0.10663978
-0.051848847 -0.06857362 -0.020195331 -0.030418146 -0.007740222 -0.021660833 -0.044715915 -0.009368987
00000000: 3510 973c 4643 d6bd 31eb a3bc d336 b8bd
00000010: c1cf 173b df05 38bd 9152 4cbd eca3 14bc
00000020: 2605 9d3a c295 3fbc 9ef3 73bd 16a2 96bd
00000030: 2906 2ebd 0f35 a0bd 5421 373d eaa8 84bc
00000040: b001 953c 4021 6cbd 53a5 72bd 4601 47bd
00000050: 9acb babc b468 54bb e53a 88bd fb1d a33d
00000060: 6e9a 13bc ce74 fcbc 3a8f 2bbb 45b6 b3bc
00000070: b62b b9bd f908 68be 4d48 97bd 8b5a 30bc
00000080: 5401 3ebc 5fcd 96bd abe5 a2bc a51c 49bd
00000090: 376b cabc 1a75 1ebc b2c6 91bd d57e 4e3d
000000a0: fb84 2bbd a2d2 33be 7b37 1dbd 5164 7ebd
000000b0: 41b2 7cbd e3eb 26bd ba7a 87bd a6ff d7bc
000000c0: 37a1 8c3e 251e c4bb 8a26 11bd 600c 07bd
000000d0: 6a37 4e3d 466f 863c f6bd 253e b8d8 fe3c
000000e0: 93b5 efbc 751f 27bd 1a22 e5bc d915 19bb
000000f0: 3455 95bd 99dc 04bd 23d2 0cbd d107 1bbd
00000100: adba 5ebd 1b79 ccbd 835f 70bd 5920 dfbd
00000110: 00af 613d 6d85 b3bc 7577 72bd 6b63 b4bc
00000120: ab9c 60bd 2d7e cfba a1cc 01bc fec1 91bc
00000130: 7c1a 34bd 2889 383e 1e33 05bd 2ffe 6abd
00000140: 9c3e f9bc f277 a1bd 7fb8 46bd d265 edb7
00000150: 4884 0c3e b563 2c3e cd6f 29bd 411c e73c
00000160: da24 d1bd eebc e6bd 60fe a9bd 5f32 7fbd
00000170: 4763 ffbb caba 84bd 760a 2ebd c2f7 2fbc
00000180: 20e0 15bd 5b89 0cbb 4646 8cbd 72b1 90bc
00000190: 9b2d 8d3d 2adc 713d a50e 31bb 7a64 57bd
000001a0: 0918 58bd 90d0 f63b 8e7d 76bd b93c c5bd
000001b0: af84 f4bc b1ff 0a3d d7c2 00bd 05be 1dbd
000001c0: 6a30 28bd c454 0bbd a30d ea3c 0894 043d
000001d0: d814 80bc 1402 81bd 8fe2 9abc f565 da3d
000001e0: 755f 54bd 5370 8cbd ae70 a5bc 7a2f f9bc
000001f0: b0a1 fdbb 0f72 b1bc 0928 37bd 6180 19bc

layer_2.weight f4 [64, 128, 5, 5]
0.0053757858 -0.0039213113 -0.019837854 -0.02118281 0.00031201437 -0.021071577 -0.003931848 -0.013271363
-0.0026051665 -0.007354187 0.0038734663 -0.019640882 -0.017654262 -0.0028245107 0.005829898 -0.016608506
0.003167251 0.010049281 0.0050992467 0.011183013 0.0031601854 0.0016570828 -0.013884355 0.0050631706
-0.023613142 -0.018213894 -0.005264236 -0.003704589 -0.012912163 0.0060814717 0.0011640546 -0.006478574
0.008282218 -0.0027789564 -0.02223064 0.0031420458 -0.003798994 -0.022874303 -0.0024088055 -0.0039110566
-0.010270212 0.0051250625 -0.0151425935 -0.011616068 -0.004887091 -0.018354453 -0.022649558 -0.0130774425
-0.01438135 -0.004131799 -0.017116413 -0.006411598 -0.011538823 -0.002565363 0.00401126 -0.019216714
-0.0017776965 -0.010199662 -0.016539562 -0.0071776775 0.0027048155 -0.011285949 -0.019756285 -0.01697934
0.010083017 -0.015900698 -0.015917297 -0.015955325 0.0012790745 0.003387957 -0.012414576 0.010655174
-0.019587656 0.005284135 -0.012972101 0.007237151 0.0066863946 0.00453673 -0.02292124 -0.013525547
0.00030052217 0.007871845 0.0043405853 -0.005117526 -0.008127612 -0.005068889 -0.01152028 0.008091964
-0.023108395 -0.016072486 -0.015933096 0.009551579 -0.009891093 -0.011885901 9.324904e-05 0.009353913
-0.005587236 -0.0067543522 -0.010304571 0.004473353 -0.013896599 -0.021698374 -0.015317365 0.011351779
-0.011963 -0.023343466 -0.004655102 0.009708305 0.009366518 -0.0015931461 0.0056173652 -0.012421441
-0.021859877 -0.014064862 0.010671875 0.008127152 -0.0068242373 -0.012670598 -0.00891164 -0.0015220452
0.0031197434 -0.017242108 0.0035110556 0.0077216765 0.0072006118 -0.0070077893 -0.022537513 -0.011658352
-0.021780899 0.0020135297 -0.020536914 0.0015094246 0.011477271 0.0013619784 0.0052998983 -0.019507213
0.01095941 -0.020229049 -0.007146623 -0.0030532936 -0.017649101 -0.0019430519 -0.020815019 0.0060353642
0.010074233 0.003305958 -0.009182133 0.011092523 -0.0031308616 -0.017217036 -0.011561551 -0.017036185
-0.019383065 -0.022064673 0.009829787 -0.014518211 0.010599381 -0.008546087 0.0023292908 -0.016930688
-0.019330468 0.011191351 0.0057773185 -0.023196798 0.0076055406 0.0012746492 -0.01567155 -0.013714569
-0.01596858 -0.02129904 -0.012058988 -0.019916449 -0.021382991 -0.020357946 -0.009195006 -0.02006359
0.0051110885 -0.00083715067 -0.003651822 -0.008190611 0.003046802 0.0059789014 0.005673486 0.007190748
-0.017693814 0.010384062 -0.015476268 -0.0048444564 0.0037641705 0.0055043846 -0.023674315 -0.005478495
-0.0053245802 -0.0059432327 0.01166886 0.00328163 -0.015580698 0.010903206 -0.0055157514 -0.015239471
0.008655744 0.0007158686 -0.0009951125 -0.008975967 -0.012631665 0.0024319233 -0.019016353 -0.016312022
-0.013569528 -0.01622744 0.008165085 -0.012004983 -0.022344762 -0.0097671645 -0.012587693 -0.01924341
-0.020280575 -0.022068089 0.006878574 -0.009167669 0.0017907793 0.008756731 0.0080744885 -0.015315356
-0.009776633 -0.008335616 -0.0141313765 0.008637586 -0.017657017 0.006355977 -0.011530015 -0.011152414
0.00567177 -0.012430646 -0.012185462 -0.022930127 0.011662849 0.011322078 -0.00085501757 -0.010424148
-0.018955827 -0.0018967635 -0.01894607 -0.021052897 -0.014328229 -0.014257241 -0.004224614 -0.02144727
0.002505719 0.007369295 -0.0026483405 -0.0056782807 -0.017290385 -0.015124264 0.0048214975 -0.0049511516
00000000: 5c27 b03b 587e 80bb ff82 a2bc 9387 adbc
00000010: dc95 a339 4d9e acbc bbd6 80bb 2270 59bc
00000020: 71bb 2abb 64fb f0bb fbd9 7d3b eae5 a0bc
00000030: ac9f 90bc 6d1b 39bb bb08 bf3b 900e 88bc
00000040: a791 4f3b bda5 243c 9517 a73b f538 373c
00000050: 1d1b 4f3b 7932 d93a 357b 63bc f4e8 a53b
00000060: 5970 c1bc 4e35 95bc 9d7f acbb b1c8 72bb
00000070: 898d 53bc 1547 c73b 3193 983a 384a d4bb
00000080: 24b2 073c 271f 36bb 081d b6bc c8ea 4d3b
00000090: 8bf8 78bb e462 bbbc 0ddd 1dbb 5228 80bb
000000a0: 6444 28bc 24f0 a73b a418 78bc 5251 3ebc
000000b0: e423 a0bb 145c 96bc 918b b9bc c542 56bc
000000c0: c19f 6bbc 0b64 87bb b837 8cbc 6218 d2bb
000000d0: 550d 3dbc a61f 28bb e370 833b 5f6c 9dbc
000000e0: 9901 e9ba 7c1c 27bc fa7d 87bc b932 ebbb
000000f0: 4643 313b b3e8 38bc efd7 a1bc 4218 8bbc
00000100: 3d33 253c 2e42 82bc fe64 82bc beb4 82bc
00000110: 9ea6 a73a 7d08 5e3b 8166 4bbc 0a93 2e3c
00000120: 4b76 a0bc 8a26 ad3b ef88 54bc 9f25 ed3b
00000130: 8b19 db3b d9a8 943b 53c5 bbbc 429a 5dbc
00000140: 678f 9d39 e9f8 003c 783b 8e3b ebb0 a7bb
00000150: ad29 05bc ec18 a6bb 8ebf 3cbc 2894 043c
00000160: d14d bdbc 72aa 83bc 2086 82bc 3a7e 1c3c
00000170: 400e 22bc 15bd 42bc b28e c338 2841 193c
00000180: 2215 b7bb 9d53 ddbb 81d4 28bc 3495 923b
00000190: 90ae 63bc cac0 b1bc aff5 7abc d0fc 393c
000001a0: 7500 44bc cc3a bfbc d389 98bb 950f 1f3c
000001b0: 0676 193c 1dd1 d0ba e011 b83b 4d83 4bbc
000001c0: 7c13 b3bc 4f70 66bc 17d9 2e3c bf27 053c
000001d0: da9d dfbb 5798 4fbc 2102 12bc 5d7f c7ba
000001e0: 9c74 4c3b 523f 8dbc bd19 663b 1e06 fd3b
000001f0: 1cf3 eb3b 99a1 e5bb 97a0 b8bc ac02 3fbc
00000200: db6d b2bc 6cf5 033b 083d a8bc e3d7 c53a
00000210: 2a0b 3c3c 6984 b23a c5aa ad3b 97cd 9fbc
00000220: 198f 333c 64b7 a5bc 382e eabb c419 48bb
00000230: d994 90bc 01ae feba 4284 aabc 4ec4 c53b
00000240: 650e 253c c5a8 583b a870 16bc 6abd 353c
00000250: 242f 4dbb be0a 8dbc a96c 3dbc 788f 8bbc
00000260: 3cc9 9ebc f9c0 b4bc 1d0d 213c cadd 6dbc
00000270: 07a9 2d3c e304 0cbc 04a7 183b 3ab2 8abc
00000280: ee5a 9ebc ee5b 373c a94f bd3b 3607 bebc
00000290: e637 f93b 2112 a73a 9f61 80bc 12b3 60bc
000002a0: 8ad0 82bc 537b aebc 1093 45bc d227 a3bc
000002b0: 622b afbc b5c5 a6bc a7a6 16bc 665c a4bc
000002c0: eb7a a73b 3b74 5bba 6853 6fbb ea31 06bc
000002d0: dbac 473b a9ea c33b a6e8 b93b 5ea0 eb3b
000002e0: 9ef2 90bc ea21 2a3c 2c90 7dbc 3fbe 9ebb
000002f0: 4db0 763b 205e b43b a3f0 c1bc f284 b3bb
00000300: d179 aebb 73bf c2bb bf2e 3f3c 9e10 573b
00000310: 2f46 7fbc 5ca3 323c 7abd b4bb f9ae 79bc
00000320: d2d0 0d3c 21a9 3b3a 6f6e 82ba ef0f 13bc
00000330: 0bf5 4ebc e760 1f3b 2fc8 9bbc caa0 85bc
00000340: ba52 5ebc 69ef 84bc d9c6 053c 8cb0 44bc
00000350: 5d0c b7bc 7506 20bc 9c3c 4ebc 5ba4 9dbc
00000360: 7323 a6bc 23c8 b4bc a965 e13b fe33 16bc
00000370: 95b8 ea3a 6478 0f3c dc4a 043c 42ed 7abc
00000380: 2c2e 20bc 1c92 08bc 4a87 67bc a984 0d3c
00000390: 73a5 90bc cd45 d03b 63e8 3cbc 9db8 36bc
000003a0: 41da b93b e9a9 4bbc 88a5 47bc f6d7 bbbc
000003b0: 8915 3f3c 3d80 393c 4223 60ba 0cca 2abc
000003c0: 4049 9bbc d29c f8ba ca34 9bbc 2077 acbc
000003d0: f3c0 6abc 3497 69bc a16e 8abb 2fb2 afbc
000003e0: fd36 243b 217a f13b c88f 2dbb df10 babb
000003f0: 91a4 8dbc c3cb 77bc a7fd 9d3b 453d a2bb

layer_2.bias f4 [64]
-0.010946991 0.025574388 -0.014214679 0.027523102 -0.0152774835 0.039456107 0.0071530114 -0.009140081
0.022122215 0.0032514469 -0.01735597 0.04980275 -0.023073703 -0.0033330878 -0.013899175 -0.018795684
-0.0021341601 -0.012764237 0.0049780947 -0.01549752 -0.0047599883 -0.011836267 -0.012232061 -0.011604385
0.01889348 0.019094346 -0.002890689 -0.020738907 0.10211656 -0.021848844 0.10661946 -0.011755328
0.016728478 -0.00018048145 -0.008329223 0.00654195 -0.25483257 -0.01422042 -0.02129153 0.038132664
-0.020314408 0.0066809766 0.07511586 -0.018445013 0.011288947 -0.013969242 0.03444508 -0.15131941
-0.02084403 -0.011407317 0.04316694 0.021165643 0.035193328 0.010181075 -0.041467562 0.0014391728
0.048210047 0.0076874066 0.002108513 -0.011649547 -0.006574334 -0.014757385 -0.009408893 -0.023126721
00000000: 025b 33bc 6181 d13c afe4 68bc 2178 e13c
00000010: 694e 7abc ba9c 213d cf63 ea3b 47c0 15bc
00000020: a639 b53c 3a16 553b 1b2e 8ebc f8fd 4b3d
00000030: 1005 bdbc ef6f 5abb 5eb9 63bc 68f9 99bc
00000040: 44dd 0bbb 1721 51bc 491f a33b 4fe9 7dbc
00000050: adf9 9bbb e7ec 41bc fb68 48bc 5220 3ebc
00000060: 80c6 9a3c bf6b 9c3c b771 3dbb a4e4 a9bc
00000070: 7d22 d13d 59fc b2bc 4e5b da3d 6b99 40bc
00000080: 290a 893c 9f3f 3db9 4b77 08bc db5d d63b
00000090: 6a79 82be c4fc 68bc 936b aebc ff30 1c3d
000000a0: 676a a6bc 18ec da3b 58d6 993d ff19 97bc
000000b0: 47f5 383c 3fdf 64bc 4916 0d3d 7af3 1abe
000000c0: 19c1 aabc c1e5 3abc d1cf 303d 9263 ad3c
000000d0: e126 103d 86ce 263c e4d9 29bd a0a2 bc3a
000000e0: e677 453d a4e6 fb3b fa2e 0a3b bedd 3ebc
000000f0: 836d d7bb f5c8 71bc c227 1abc 4074 bdbc

layer_3.weight f4 [3, 64, 5, 5]
0.012495738 -0.0051806504 0.021844352 -0.008293691 -0.003290267 -0.017261634 0.010871663 -0.014925964
-0.017204681 0.020843929 -0.00566925 -0.015746513 -0.016182326 0.025918571 0.021953538 0.02430327
-0.01605117 -0.014681907 0.026688384 0.023554068 0.019054422 -0.018252121 0.010652684 0.007882566
-0.010009733 0.021142874 0.050494462 0.017203072 -0.07573291 -0.03185832 0.006690299 0.078250125
0.0046346732 -0.025474155 -0.0072410093 0.036458563 0.11477675 -0.013299882 -0.045758784 -0.02522663
-0.028664965 -0.0074826684 0.13026707 -0.054951087 -0.029688975 0.040647782 -0.029255223 -0.06184819
-0.04829115 -0.014107902 0.030029528 0.0009467936 0.032523084 0.0077253575 0.01591716 0.019054925
-0.009075477 0.017338358 0.011607703 0.029624974 0.0141604245 0.026945755 -0.013198125 -0.013236509
-0.010627605 0.034984455 -0.013777012 0.019989923 0.0022679127 0.022745369 0.024914568 -0.009028095
-0.007074439 -0.0046227844 -0.012707273 -0.04098008 -0.076064505 -0.049027495 -0.015458192 -0.010552989
-0.07163713 -0.08743559 -0.046363916 0.011161903 0.012287762 -0.012016017 0.011431954 0.030555895
0.05945872 0.045342535 0.0061903275 0.056856386 0.06957472 0.05643671 0.037702605 -0.0085560735
0.004642407 0.0010838434 0.008111466 0.0070686974 -0.0079143625 0.014982499 0.015538069 -0.017439226
-0.0034122888 0.011453657 0.014182483 0.016720844 -0.0039852257 0.024958346 -0.0072479695 0.024670262
0.030721989 0.002532113 0.013309791 -0.018665172 -0.0041699065 -0.009576534 0.023027 -0.012092671
0.014742281 -0.006597952 -0.0065142475 0.02815498 -0.007321252 -0.013353304 -0.061421525 -0.00357568
0.007116046 0.017119786 -0.055910263 -0.051003467 0.039287228 0.023991778 0.03417762 -0.03663522
0.03933396 0.070981845 0.008312468 0.027955152 -0.0070053837 -0.027462156 0.024758538 -0.0100497715
-0.020743234 0.0044655013 0.005768276 -0.013472434 -0.012259174 -0.022535557 -0.004293291 -0.01731534
0.0246909 0.009498764 0.022388786 0.026034907 0.024904858 0.014257034 0.0018574565 0.017412653
-0.0073094056 -0.008878873 -0.0040128916 0.006679167 0.015768548 -0.008475319 -0.006236738 0.006738449
0.0050236573 -0.012466437 -0.0013177787 0.027742123 -0.018595967 -0.0012018989 0.01492515 0.010874822
-0.018390028 -0.00521465 0.003409142 -0.013276237 0.013839276 -0.010048355 0.029019274 0.021659542
0.014969848 0.00306258 -0.0033088245 -0.012172743 -0.0095200995 0.020703193 0.025560193 0.008905067
0.012402974 0.0095399385 -0.014082133 -0.007267927 0.013858892 -0.009149558 0.0025363737 0.005998708
0.039330326 0.030629871 0.016870452 0.025969988 0.0032253563 0.0051484625 0.025487252 0.026253797
0.014666217 0.008835941 -4.0405175e-05 0.018694794 0.032183573 0.033673596 0.02574651 0.024943974
0.015956234 0.015925363 0.01978062 -0.0088635245 -0.0050272257 0.025971679 0.011331784 0.039234065
0.0009776009 -0.013615668 0.008216048 -0.0019824563 0.00054950116 -0.026760317 0.005488824 0.0037333495
0.0022511797 -0.010522109 -0.007713498 -0.019790426 -0.043517374 -0.051889688 -0.01635446 0.000988804
-0.0054063783 -0.030561708 -0.031254873 -0.010874397 0.017983504 -0.010417229 -0.040573858 0.009651845
0.010908265 0.01841478 0.004910659 0.0066411938 0.020215554 0.027106265 -0.014424344 -0.004262002
00000000: edba 4c3c 72c2 a9bb edf2 b23c 43e2 07bc
00000010: 85a1 57bb 4568 8dbc 0f1f 323c 088c 74bc
00000020: d5f0 8cbc e3c0 aa3c 1ec5 b9bb d5fe 80bc
00000030: cc90 84bc 2f53 d43c e8d7 b33c a717 c73c
00000040: be7d 83bc 628c 70bc 99a1 da3c 76f4 c03c
00000050: 0518 9c3c 7985 95bc 9888 2e3c e125 013c
00000060: ddff 23bc d233 ad3c 48d3 4e3d 75ed 8c3c
00000070: db19 9bbd df7d 02bd 4c3a db3b 9a41 a03d
00000080: 75de 973b 2daf d0bc fd45 edbb 9355 153d
00000090: 1310 eb3d c0e7 59bc 906d 3bbd 14a8 cebc
000000a0: cad2 eabc 2c31 f5bb bb64 053e 6414 61bd
000000b0: 4b36 f3bc 4a7e 263d a6a8 efbc 8754 7dbd
000000c0: f1cc 45bd d424 67bc 7c00 f63c 3e32 783a
000000d0: ed36 053d ff24 fd3b b464 823c 1319 9c3c
000000e0: 4fb1 14bc 2c09 8e3c 3c2e 3e3c 13b0 f23c
000000f0: 2001 683c 58bd dc3c f33c 58bc f1dd 58bc
00000100: 681f 2ebc dc4b 0f3d fab8 61bc e8c1 a33c
00000110: 43a1 143b 7f54 ba3c a319 cc3c 93ea 13bc
00000120: b2d0 e7bb ba7a 97bb 2a32 50bc bada 27bd
00000130: b5c7 9bbd 0ed1 48bd 5b44 7dbc 72e6 2cbc
00000140: 7db6 92bd 6e11 b3bd 17e8 3dbd 6ae0 363c
00000150: 9c52 493c d4de 44bc 174d 3b3c 5b50 fa3c
00000160: fd8a 733d 18b9 393d 3bd8 ca3b 3ee2 683d
00000170: 317d 8e3d 2e2a 673d 0c6e 1a3d c62e 0cbc
00000180: 551f 983b c00f 8e3a f4e5 043c 88a0 e73b
00000190: 3eab 01bc 2879 753c 6393 7e3c b5dc 8ebc
000001a0: b5a0 5fbb 1fa8 3b3c a55d 683c 27fa 883c
000001b0: 7f96 82bb 7275 cc3c 6080 edbb 4a19 ca3c
000001c0: aeac fb3c cff1 253b 4f11 5a3c b4e7 98bc
000001d0: b6a3 88bb e5e6 1cbc 1ea3 bc3c 5720 46bc
000001e0: 9c89 713c a233 d8bb 7875 d5bb 46a5 e63c
000001f0: 1de7 efbb d1c7 5abc 2395 7bbd f555 6abb
00000200: b82d e93b cb3e 8c3c 2902 65bd 03e9 50bd
00000210: a5eb 203d 688a c43c d5fd 0b3d d00e 16bd
00000220: a51c 213d ee5e 913d 0531 083c 3402 e53c
00000230: 6b8d e5bb 51f8 e0bc 6bd2 ca3c cca7 24bc
00000240: b7ed a9bc 5753 923b ce03 bd3b 7cbb 5cbc
00000250: b4da 48bc 7d9c b8bc bcae 8cbb e6d8 8dbc
00000260: 9244 ca3c b4a0 1b3c b068 b73c 2847 d53c
00000270: 4605 cc3c 5696 693c e675 f33a fba4 8e3c
00000280: bd83 efbb b178 11bc 937e 83bb eadc da3b
00000290: 0b2d 813c 10dc 0abc 8d5d ccbb 35ce dc3b
000002a0: 7e9d a43b 0740 4cbc 51b9 acba 7343 e33c
000002b0: 9256 98bc 0989 9dba 9e88 743c 4f2c 323c
000002c0: afa6 96bc a8df aabb e96b 5f3b 9384 59bc
000002d0: 21be 623c dba1 24bc d4b9 ed3c 5a6f b13c
000002e0: 1844 753c 91b5 483b ddd8 58bb 2f70 47bc
000002f0: 31fa 1bbc be99 a93c 9c63 d13c 8fe6 113c
00000300: d835 4b3c 674d 1c3c bfb8 66bc ca27 eebb
00000310: 6810 633c 07e8 15bc 4a39 263b cf90 c43b
00000320: d618 213d 7feb fa3c e733 8a3c 03bf d43c
00000330: 8060 533b 6fb4 a83b a4ca d03c 3412 d73c
00000340: 934a 703c 9fc4 103c ba78 29b8 d325 993c
00000350: ecd2 033d 53ed 093d 58ea d23c 4e57 cc3c
00000360: a6b6 823c e875 823c f70a a23c 5138 11bc
00000370: 6dbb a4bb 8fc2 d43c f2a8 393c e6b3 203d
00000380: d822 803a 4014 5fbc 9a9c 063c 19ec 01bb
00000390: 660c 103a 7438 dbbc 98db b33b 36ab 743b
000003a0: 8788 133b ed64 2cbc 83c1 fcbb 881f a2bc
000003b0: 463f 32bd 488a 54bd caf9 85bc c29a 813a
000003c0: fd27 b1bb 8c5c fabc 1c05 00bd 872a 32bc
000003d0: 2452 933c 06ad 2abc c630 26bd c622 1e3c
000003e0: 94b8 323c 98da 963c 98e9 a03b 5f9e d93b
000003f0: 179b a53c f50d de3c 1554 6cbc 44a8 8bbb

layer_3.bias f4 [3]
0.035932213 0.024775408 0.042890236
00000000: a82d 133d ccf5 ca3c acad 2f3d
